models/ok_katchi/ok_katchi.tflite (tflite, 63544 bytes, 18 tensors)

tfl.pseudo_qconst1 i1 [1, 2368] scale=0.016028713 zero_point=0
00000000: e9e4 e7f0 f6ec fff1 f7ff eada 07dd 0aed
00000010: e7e2 0adf fae9 ecd5 ecf5 e0f4 eed1 f8f0
00000020: f301 d5e0 f620 10fa 0321 c9eb 0cd6 0aec
00000030: e8e2 fedd dff2 efff ec00 f1f5 ff0a e2fa
00000040: eff0 effa fcfa fcee 00fc f4d9 fde9 0bf7
00000050: e4ef 02d5 fbec eee7 f2fb f4e9 fce4 fefb
00000060: ee02 eee9 fd15 0c02 001c d7fd 04e3 09fd
00000070: efe9 f8eb e8f7 f006 f700 e9ea feff e203
00000080: f1f6 f3f5 feff f7ef 05fc f3dc 00f2 07fe
00000090: e9f6 04d9 01e8 faf5 f4f5 f0de 00e6 02fb
000000a0: ee05 fae7 0211 05fb f515 e5fa 03de 04fc
000000b0: ebe3 fbf1 f3f0 ea05 f9fb f7ef 03fb e402
000000c0: f6e1 fcf9 04fc f6ea 01fb f2df 08f4 fdfa
000000d0: ddfa 01e7 06d3 f5f8 f3e8 e9df 02e7 f7f2
000000e0: f501 fee6 020f 01f6 f715 eeff 02d4 06f4
000000f0: eaec 00fe ecf8 ed02 f306 f3ed 02f8 ea08
-0.36866042 -0.44880396 -0.40071782 -0.25645941 -0.16028714 -0.32057428 -0.016028713 -0.2404307
-0.14425842 -0.016028713 -0.3526317 -0.6090911 0.11220099 -0.561005 0.16028714 -0.30454555
-0.40071782 -0.4808614 0.16028714 -0.52894753 -0.09617228 -0.36866042 -0.32057428 -0.6892347
-0.32057428 -0.17631584 -0.51291883 -0.19234456 -0.28851685 -0.75334954 -0.12822971 -0.25645941
-0.20837328 0.016028713 -0.6892347 -0.51291883 -0.16028714 0.51291883 0.25645941 -0.09617228
0.04808614 0.52894753 -0.8815792 -0.336603 0.19234456 -0.673206 0.16028714 -0.32057428
-0.38468912 -0.4808614 -0.032057427 -0.561005 -0.52894753 -0.22440198 -0.27248812 -0.016028713
-0.32057428 0.0 -0.2404307 -0.17631584 -0.016028713 0.16028714 -0.4808614 -0.09617228
-0.27248812 -0.25645941 -0.27248812 -0.09617228 -0.064114854 -0.09617228 -0.064114854 -0.28851685
0.0 -0.064114854 -0.19234456 -0.6251198 -0.04808614 -0.36866042 0.17631584 -0.14425842
-0.44880396 -0.27248812 0.032057427 -0.6892347 -0.08014357 -0.32057428 -0.28851685 -0.40071782
-0.22440198 -0.08014357 -0.19234456 -0.36866042 -0.064114854 -0.44880396 -0.032057427 -0.08014357
-0.28851685 0.032057427 -0.28851685 -0.36866042 -0.04808614 0.336603 0.19234456 0.032057427
0.0 0.44880396 -0.65717727 -0.04808614 0.064114854 -0.4648327 0.14425842 -0.04808614
-0.27248812 -0.36866042 -0.12822971 -0.336603 -0.38468912 -0.14425842 -0.25645941 0.09617228
-0.14425842 0.0 -0.36866042 -0.3526317 -0.032057427 -0.016028713 -0.4808614 0.04808614
-0.2404307 -0.16028714 -0.20837328 -0.17631584 -0.032057427 -0.016028713 -0.14425842 -0.27248812
0.08014357 -0.064114854 -0.20837328 -0.5770337 0.0 -0.22440198 0.11220099 -0.032057427
-0.36866042 -0.16028714 0.064114854 -0.6251198 0.016028713 -0.38468912 -0.09617228 -0.17631584
-0.19234456 -0.17631584 -0.25645941 -0.54497623 0.0 -0.41674656 0.032057427 -0.08014357
-0.28851685 0.08014357 -0.09617228 -0.40071782 0.032057427 0.27248812 0.08014357 -0.08014357
-0.17631584 0.336603 -0.43277526 -0.09617228 0.04808614 -0.54497623 0.064114854 -0.064114854
-0.336603 -0.4648327 -0.08014357 -0.2404307 -0.20837328 -0.25645941 -0.3526317 0.08014357
-0.11220099 -0.08014357 -0.14425842 -0.27248812 0.04808614 -0.08014357 -0.44880396 0.032057427
-0.16028714 -0.49689013 -0.064114854 -0.11220099 0.064114854 -0.064114854 -0.16028714 -0.3526317
0.016028713 -0.08014357 -0.22440198 -0.52894753 0.12822971 -0.19234456 -0.04808614 -0.09617228
-0.561005 -0.09617228 0.016028713 -0.40071782 0.09617228 -0.7212921 -0.17631584 -0.12822971
-0.20837328 -0.38468912 -0.36866042 -0.52894753 0.032057427 -0.40071782 -0.14425842 -0.22440198
-0.17631584 0.016028713 -0.032057427 -0.41674656 0.032057427 0.2404307 0.016028713 -0.16028714
-0.14425842 0.336603 -0.28851685 -0.016028713 0.032057427 -0.7052634 0.09617228 -0.19234456
-0.3526317 -0.32057428 0.0 -0.032057427 -0.32057428 -0.12822971 -0.30454555 0.032057427
-0.20837328 0.09617228 -0.20837328 -0.30454555 0.032057427 -0.12822971 -0.3526317 0.12822971

tfl.pseudo_qconst3 i1 [64, 1, 1, 64]
00000000: a919 b712 3c08 cce8 e6cb 2cde 4a26 d73a
00000010: 770f ea21 12f6 f742 33ca d51d cd81 1af5
00000020: e3dd 0e0b 0d9b eac4 e10d 3d07 f201 f41a
00000030: c0dc 2e72 3253 da2c 204a 2124 211c 0c09
00000040: f743 82f4 ce0e f940 a7a0 c0cb e91a 51c7
00000050: 11dc 2eee 53d5 2d6f 63cb d204 f2e9 3045
00000060: 6fe1 0c25 3ae7 189b 161f 232f df13 0afa
00000070: ea3e ce36 b458 0f81 d461 bfc2 01f2 1b05
00000080: e300 f104 15f3 f2e1 e71a 01fa 394a 027f
00000090: 27ef fd4a 1dfc 1525 cddb 28eb 1230 f2fb
000000a0: eae4 f31e 21d3 39d0 24d6 20cf fcf6 30fe
000000b0: c415 bd1e cfe6 f918 0a07 fa21 ebd3 e307
000000c0: d643 be0b 48b8 def2 d9dc e2f7 5529 12fd
000000d0: df35 df00 19de 1823 f8c5 e2eb 4601 0c29
000000e0: 050b 3a08 fec3 dd81 1725 091b e293 e00a
000000f0: efed 2716 c0d6 c8fc fa62 ec15 d20e f0c3
-87 25 -73 18 60 8 -52 -24
-26 -53 44 -34 74 38 -41 58
119 15 -22 33 18 -10 -9 66
51 -54 -43 29 -51 -127 26 -11
-29 -35 14 11 13 -101 -22 -60
-31 13 61 7 -14 1 -12 26
-64 -36 46 114 50 83 -38 44
32 74 33 36 33 28 12 9
-9 67 -126 -12 -50 14 -7 64
-89 -96 -64 -53 -23 26 81 -57
17 -36 46 -18 83 -43 45 111
99 -53 -46 4 -14 -23 48 69
111 -31 12 37 58 -25 24 -101
22 31 35 47 -33 19 10 -6
-22 62 -50 54 -76 88 15 -127
-44 97 -65 -62 1 -14 27 5
-29 0 -15 4 21 -13 -14 -31
-25 26 1 -6 57 74 2 127
39 -17 -3 74 29 -4 21 37
-51 -37 40 -21 18 48 -14 -5
-22 -28 -13 30 33 -45 57 -48
36 -42 32 -49 -4 -10 48 -2
-60 21 -67 30 -49 -26 -7 24
10 7 -6 33 -21 -45 -29 7
-42 67 -66 11 72 -72 -34 -14
-39 -36 -30 -9 85 41 18 -3
-33 53 -33 0 25 -34 24 35
-8 -59 -30 -21 70 1 12 41
5 11 58 8 -2 -61 -35 -127
23 37 9 27 -30 -109 -32 10
-17 -19 39 22 -64 -42 -56 -4
-6 98 -20 21 -46 14 -16 -61

tfl.pseudo_qconst5 i1 [1, 23, 1, 64]
00000000: 778d 5abb a87f 81e8 6331 5163 81fb 8177
00000010: 6181 e1fa 6b98 0f79 d62e 81bd 28a5 5ce6
00000020: a758 6836 d32a 6e7f bfe0 7793 869d 6335
00000030: 287f 917f f67f f114 1481 61b8 b1f6 cd75
00000040: 7e98 65d6 b15f a7dc 602b 4b50 a7f8 9569
00000050: 4694 d410 6b96 ee7f dd2d 97ea 3894 35e4
00000060: a646 7130 ce29 5458 ccf8 7f9c b5be 241e
00000070: 1a4e 9e60 fe78 f1fe 0f9d 5fe4 b1f2 a17f
00000080: 7f92 71d0 be47 c3fe 5243 2439 a202 a25b
00000090: 21b3 ee1b 3584 df7b e91f abec 3d97 0cd4
000000a0: c856 6520 dc2b 4b24 ca05 6695 f892 fc15
000000b0: 1f29 b740 f137 01e8 0ea8 6ef9 bde8 9762
000000c0: 58a5 77f7 b93c cb08 4e42 103a ac2a af5c
000000d0: 05d2 f60e 368b cf5b 041e aed8 2a81 fcb6
000000e0: d65c 5514 ee2e 37da c405 3581 0581 011f
000000f0: 240a d028 fcfc 06e2 12aa 7b21 c2e4 b958
119 -115 90 -69 -88 127 -127 -24
99 49 81 99 -127 -5 -127 119
97 -127 -31 -6 107 -104 15 121
-42 46 -127 -67 40 -91 92 -26
-89 88 104 54 -45 42 110 127
-65 -32 119 -109 -122 -99 99 53
40 127 -111 127 -10 127 -15 20
20 -127 97 -72 -79 -10 -51 117
126 -104 101 -42 -79 95 -89 -36
96 43 75 80 -89 -8 -107 105
70 -108 -44 16 107 -106 -18 127
-35 45 -105 -22 56 -108 53 -28
-90 70 113 48 -50 41 84 88
-52 -8 127 -100 -75 -66 36 30
26 78 -98 96 -2 120 -15 -2
15 -99 95 -28 -79 -14 -95 127
127 -110 113 -48 -66 71 -61 -2
82 67 36 57 -94 2 -94 91
33 -77 -18 27 53 -124 -33 123
-23 31 -85 -20 61 -105 12 -44
-56 86 101 32 -36 43 75 36
-54 5 102 -107 -8 -110 -4 21
31 41 -73 64 -15 55 1 -24
14 -88 110 -7 -67 -24 -105 98
88 -91 119 -9 -71 60 -53 8
78 66 16 58 -84 42 -81 92
5 -46 -10 14 54 -117 -49 91
4 30 -82 -40 42 -127 -4 -74
-42 92 85 20 -18 46 55 -38
-60 5 53 -127 5 -127 1 31
36 10 -48 40 -4 -4 6 -30
18 -86 123 33 -62 -28 -71 88

tfl.pseudo_qconst7 i1 [64, 1, 1, 64]
00000000: 13f6 08ed e9bb 39f8 fbeb f002 4023 ea1c
00000010: 1b00 1522 2bed 000c d839 fd14 d3cc e6e1
00000020: f9ec 233d 03eb ba18 3f27 2028 2539 2f18
00000030: d935 df1e eaf8 df30 f6ec 122d 077f ca24
00000040: f104 01d1 0c06 1814 2633 27c8 e1e8 db50
00000050: 1a05 e0df e931 08b8 9210 5f40 1024 2eea
00000060: 1615 1efe e12c f109 0dd2 392b c959 e7ff
00000070: a217 0708 1adc edc2 5674 29d1 8128 e9b7
00000080: 547f 110a 0508 0dec 2113 fcf1 03f1 f9f5
00000090: 0a1b f1df f0ea 0813 e1fa e6e0 0315 1045
000000a0: 080b 1fff e6f5 11d6 f305 090c ffe9 19f9
000000b0: f912 03fa f6f2 141a fec5 14f2 0c19 09fc
000000c0: ead8 adba 3205 cd0a f67f 15d3 10f5 fdec
000000d0: e608 0a21 173f d756 20e6 372c 13fb b4e2
000000e0: d7c5 eb1c 3117 1e4f 423a a8fe 0043 d2a4
000000f0: 3e0a 82ba 210d d4d2 f9e6 f7f5 ba05 13e3
19 -10 8 -19 -23 -69 57 -8
-5 -21 -16 2 64 35 -22 28
27 0 21 34 43 -19 0 12
-40 57 -3 20 -45 -52 -26 -31
-7 -20 35 61 3 -21 -70 24
63 39 32 40 37 57 47 24
-39 53 -33 30 -22 -8 -33 48
-10 -20 18 45 7 127 -54 36
-15 4 1 -47 12 6 24 20
38 51 39 -56 -31 -24 -37 80
26 5 -32 -33 -23 49 8 -72
-110 16 95 64 16 36 46 -22
22 21 30 -2 -31 44 -15 9
13 -46 57 43 -55 89 -25 -1
-94 23 7 8 26 -36 -19 -62
86 116 41 -47 -127 40 -23 -73
84 127 17 10 5 8 13 -20
33 19 -4 -15 3 -15 -7 -11
10 27 -15 -33 -16 -22 8 19
-31 -6 -26 -32 3 21 16 69
8 11 31 -1 -26 -11 17 -42
-13 5 9 12 -1 -23 25 -7
-7 18 3 -6 -10 -14 20 26
-2 -59 20 -14 12 25 9 -4
-22 -40 -83 -70 50 5 -51 10
-10 127 21 -45 16 -11 -3 -20
-26 8 10 33 23 63 -41 86
32 -26 55 44 19 -5 -76 -30
-41 -59 -21 28 49 23 30 79
66 58 -88 -2 0 67 -46 -92
62 10 -126 -70 33 13 -44 -46
-7 -26 -9 -11 -70 5 19 -29

tfl.pseudo_qconst9 i1 [1, 15, 1, 32]
00000000: cb81 d5b5 8137 d07f 767f 9b81 308c 8abd
00000010: 7fdf db7f 811a c881 e27f c154 a681 a098
00000020: bc98 c002 df11 c76e 605e c6b1 30c5 8181
00000030: 5dce bd53 9a00 bb91 047a 4853 9696 b0be
00000040: bdcb c440 9ef8 e152 673c a0be 04d6 b1a0
00000050: 46ea b416 a7f4 d792 fb62 5e3e a9d6 d9b9
00000060: 9db9 c264 aee3 d52e 3122 95e6 1ce2 c69c
00000070: 4b05 d9fd c3e6 df85 086d a94d f4ee c605
00000080: b9cb c665 a603 eb3d 0ff9 c0ff 0bd2 0ed1
00000090: 4c17 cdec d1df df82 006c 913d 3009 b40e
000000a0: a0f4 b67f a3f0 1b29 fbef ecf6 2ad4 15b2
000000b0: 4c35 d205 d4dd ea90 e55f 8114 6bff 924c
000000c0: a8fe a16f b80e 1b1b 10fe da15 00cd 2ab6
000000d0: 4a47 b500 e5f2 dcaa de4e c2e4 7fff 8e7f
000000e0: 8124 bb4a c317 fc19 12f9 abfb 3de4 19b7
000000f0: 397d 9f03 0efd d1b7 fb36 95f4 69ee 815c
-53 -127 -43 -75 -127 55 -48 127
118 127 -101 -127 48 -116 -118 -67
127 -33 -37 127 -127 26 -56 -127
-30 127 -63 84 -90 -127 -96 -104
-68 -104 -64 2 -33 17 -57 110
96 94 -58 -79 48 -59 -127 -127
93 -50 -67 83 -102 0 -69 -111
4 122 72 83 -106 -106 -80 -66
-67 -53 -60 64 -98 -8 -31 82
103 60 -96 -66 4 -42 -79 -96
70 -22 -76 22 -89 -12 -41 -110
-5 98 94 62 -87 -42 -39 -71
-99 -71 -62 100 -82 -29 -43 46
49 34 -107 -26 28 -30 -58 -100
75 5 -39 -3 -61 -26 -33 -123
8 109 -87 77 -12 -18 -58 5
-71 -53 -58 101 -90 3 -21 61
15 -7 -64 -1 11 -46 14 -47
76 23 -51 -20 -47 -33 -33 -126
0 108 -111 61 48 9 -76 14
-96 -12 -74 127 -93 -16 27 41
-5 -17 -20 -10 42 -44 21 -78
76 53 -46 5 -44 -35 -22 -112
-27 95 -127 20 107 -1 -110 76
-88 -2 -95 111 -72 14 27 27
16 -2 -38 21 0 -51 42 -74
74 71 -75 0 -27 -14 -36 -86
-34 78 -62 -28 127 -1 -114 127
-127 36 -69 74 -61 23 -4 25
18 -7 -85 -5 61 -28 25 -73
57 125 -97 3 14 -3 -47 -73
-5 54 -107 -12 105 -18 -127 92

tfl.pseudo_qconst11 i1 [1, 9, 1, 32]
00000000: 8dc3 8101 3a00 2366 ff93 81d7 81a4 33a7
00000010: b5c6 f831 1457 2ec9 f6c1 f919 0a81 d8e1
00000020: 92c8 9c03 6203 fe7f c481 d3d6 93a4 d8a7
00000030: 89ab c361 1026 fdc2 16bd 130a 36e8 1bb2
00000040: c4b0 d701 5c23 a97c b7c8 fcfb 9d88 c9b3
00000050: a5b1 e573 d9ce 1f81 1d81 1c20 4de9 0d9d
00000060: bcbb e302 f217 9c4e a6fc c6d5 d781 cbc6
00000070: 0401 e064 b206 2092 48b4 201e 3197 109e
00000080: c79c 1601 2308 bd42 8105 fdf8 beb9 de00
00000090: 5c10 d426 d033 1fbe 6007 1df9 2fc5 71ae
000000a0: c6a1 5313 27e1 8143 c421 f4b7 adab 360c
000000b0: 7f93 151f ea7f 33b2 1759 34d2 f2e1 7fe9
000000c0: a581 4a11 e8b5 1746 1cbe ff9b a5bd 7617
000000d0: 76c0 0c60 3131 4283 165b 4c07 9fb3 28de
000000e0: c083 5642 83a1 4434 33d2 3092 97b5 6f64
000000f0: 7281 e839 7633 66a8 c167 6520 81b8 4194
-115 -61 -127 1 58 0 35 102
-1 -109 -127 -41 -127 -92 51 -89
-75 -58 -8 49 20 87 46 -55
-10 -63 -7 25 10 -127 -40 -31
-110 -56 -100 3 98 3 -2 127
-60 -127 -45 -42 -109 -92 -40 -89
-119 -85 -61 97 16 38 -3 -62
22 -67 19 10 54 -24 27 -78
-60 -80 -41 1 92 35 -87 124
-73 -56 -4 -5 -99 -120 -55 -77
-91 -79 -27 115 -39 -50 31 -127
29 -127 28 32 77 -23 13 -99
-68 -69 -29 2 -14 23 -100 78
-90 -4 -58 -43 -41 -127 -53 -58
4 1 -32 100 -78 6 32 -110
72 -76 32 30 49 -105 16 -98
-57 -100 22 1 35 8 -67 66
-127 5 -3 -8 -66 -71 -34 0
92 16 -44 38 -48 51 31 -66
96 7 29 -7 47 -59 113 -82
-58 -95 83 19 39 -31 -127 67
-60 33 -12 -73 -83 -85 54 12
127 -109 21 31 -22 127 51 -78
23 89 52 -46 -14 -31 127 -23
-91 -127 74 17 -24 -75 23 70
28 -66 -1 -101 -91 -67 118 23
118 -64 12 96 49 49 66 -125
22 91 76 7 -97 -77 40 -34
-64 -125 86 66 -125 -95 68 52
51 -46 48 -110 -105 -75 111 100
114 -127 -24 57 118 51 102 -88
-63 103 101 32 -127 -72 65 -108

tfl.pseudo_qconst13 i1 [64, 1, 1, 64]
00000000: cef7 4a3b d068 d271 3730 81a9 edfd 1439
00000010: c720 2330 fd3f 3506 5339 f4c9 0a4b cf53
00000020: 1412 def1 deee 05e9 f232 d51f 161b dd29
00000030: bd26 1336 be0b e037 7023 f902 e81d 27fb
00000040: 05ee 3a4a fd3e 2a36 1320 04fb f914 2504
00000050: c6f4 e2ea f0f2 1cfd 3f13 25d1 dbec ff5f
00000060: dcfb 31fa 25e4 09da 0ef5 c839 b72c ff47
00000070: bc19 236b f80b e63d 7ff3 f7db d058 1fc5
00000080: 02c7 fd2a f513 a899 3fce 178d bf03 b4d5
00000090: fae3 cd0d 1b2c 08ec 26ff 360b fe17 3201
000000a0: 1f0a d618 0f39 1dff f618 380b 3409 b8e0
000000b0: fb28 5e81 1ff0 7ed8 ccc3 0226 1bd1 d2cf
000000c0: ece2 09f0 1cb9 00a0 9de3 51e2 de0e 0ff9
000000d0: 0923 b12b ec15 7f06 2f08 1bcf 010c 2f06
000000e0: 0e0b 5094 e7d2 02f6 1a09 f407 1bdc e6e0
000000f0: f758 f8e6 194f f1b7 0d4b 31f9 15d3 cac8
-50 -9 74 59 -48 104 -46 113
55 48 -127 -87 -19 -3 20 57
-57 32 35 48 -3 63 53 6
83 57 -12 -55 10 75 -49 83
20 18 -34 -15 -34 -18 5 -23
-14 50 -43 31 22 27 -35 41
-67 38 19 54 -66 11 -32 55
112 35 -7 2 -24 29 39 -5
5 -18 58 74 -3 62 42 54
19 32 4 -5 -7 20 37 4
-58 -12 -30 -22 -16 -14 28 -3
63 19 37 -47 -37 -20 -1 95
-36 -5 49 -6 37 -28 9 -38
14 -11 -56 57 -73 44 -1 71
-68 25 35 107 -8 11 -26 61
127 -13 -9 -37 -48 88 31 -59
2 -57 -3 42 -11 19 -88 -103
63 -50 23 -115 -65 3 -76 -43
-6 -29 -51 13 27 44 8 -20
38 -1 54 11 -2 23 50 1
31 10 -42 24 15 57 29 -1
-10 24 56 11 52 9 -72 -32
-5 40 94 -127 31 -16 126 -40
-52 -61 2 38 27 -47 -46 -49
-20 -30 9 -16 28 -71 0 -96
-99 -29 81 -30 -34 14 15 -7
9 35 -79 43 -20 21 127 6
47 8 27 -49 1 12 47 6
14 11 80 -108 -25 -46 2 -10
26 9 -12 7 27 -36 -26 -32
-9 88 -8 -26 25 79 -15 -73
13 75 49 -7 21 -45 -54 -56

tfl.pseudo_qconst15 i1 [1, 11, 1, 32]
00000000: 817f 0d01 9e94 ea7f 7781 7f02 e940 d87f
00000010: 84e7 817f 3dbf 1be2 81ea 817f 7f66 8c0b
00000020: bd6e f7fe 9093 0341 7f99 73ee ce71 f36f
00000030: d2f9 ae7e e3f4 a1b9 b7e2 87d2 7e5d 8711
00000040: 293b 04e9 9c81 ff05 25c0 6922 df4c 1056
00000050: ac16 9556 84c4 8d81 c5c8 82bf 787b bc20
00000060: 3147 fff6 b59e cbe7 54dd 0053 f225 f432
00000070: ba04 ad55 a5b3 96ae bbde c012 516c ad17
00000080: 6c54 ea07 d2c5 c5e1 24c4 d57f 4cfe dffd
00000090: cbed c73c d2aa 8ce5 910c e922 1851 8efc
000000a0: 5849 133d 2dea a8cc 36d7 f056 6781 d1e8
000000b0: 0f19 d83c 4581 811d 8e27 2b5e 215a 85c9
000000c0: 7330 0e20 4cef 9cea 4edb b112 278e db03
000000d0: 17eb 072c 46a3 a372 c4cc 3f3c dd72 9fc7
000000e0: 2f54 1830 7411 81fe 4fe5 cbef f6f1 0df3
000000f0: 42dd 0b19 7ff2 915f db92 18c3 d60e 81df
-127 127 13 1 -98 -108 -22 127
119 -127 127 2 -23 64 -40 127
-124 -25 -127 127 61 -65 27 -30
-127 -22 -127 127 127 102 -116 11
-67 110 -9 -2 -112 -109 3 65
127 -103 115 -18 -50 113 -13 111
-46 -7 -82 126 -29 -12 -95 -71
-73 -30 -121 -46 126 93 -121 17
41 59 4 -23 -100 -127 -1 5
37 -64 105 34 -33 76 16 86
-84 22 -107 86 -124 -60 -115 -127
-59 -56 -126 -65 120 123 -68 32
49 71 -1 -10 -75 -98 -53 -25
84 -35 0 83 -14 37 -12 50
-70 4 -83 85 -91 -77 -106 -82
-69 -34 -64 18 81 108 -83 23
108 84 -22 7 -46 -59 -59 -31
36 -60 -43 127 76 -2 -33 -3
-53 -19 -57 60 -46 -86 -116 -27
-111 12 -23 34 24 81 -114 -4
88 73 19 61 45 -22 -88 -52
54 -41 -16 86 103 -127 -47 -24
15 25 -40 60 69 -127 -127 29
-114 39 43 94 33 90 -123 -55
115 48 14 32 76 -17 -100 -22
78 -37 -79 18 39 -114 -37 3
23 -21 7 44 70 -93 -93 114
-60 -52 63 60 -35 114 -97 -57
47 84 24 48 116 17 -127 -2
79 -27 -53 -17 -10 -15 13 -13
66 -35 11 25 127 -14 -111 95
-37 -110 24 -61 -42 14 -127 -33

tfl.pseudo_qconst17 i1 [1, 7, 1, 32]
00000000: c804 4530 7fcc 221b 8149 7f24 8122 d4b5
00000010: a103 da0e c00f fc81 819e 3240 813a fa99
00000020: 81fa f438 7b29 e806 ae68 4843 8b55 cfb7
00000030: ad13 c9d1 b886 1730 db81 ea69 a95a 1f81
00000040: c4c6 ae46 3975 d4e9 b425 287f e118 7697
00000050: 8148 ecbc 8181 30ee e1d4 137f b452 eb9f
00000060: 0dbe 0b1a 377c 95fb ff1f c973 c500 7ff9
00000070: f52b fc81 81e1 00db c3ec b879 9704 d8c5
00000080: 6a00 2cd6 e742 8112 1ace 8666 cef4 1a4a
00000090: 1ce6 3090 f327 d7ae a6b2 8352 b90a 9fa8
000000a0: 6d39 68b3 a47f 9b5d 64ae 871d 089b 1327
000000b0: 30c0 55cd e634 c8e0 dbdd 8b27 f2c7 81ec
000000c0: 6a7f 7f81 b05c da7f 6c81 90e3 4081 be7f
000000d0: ff81 7fc3 e63c 8163 d2e1 8142 f681 a3e9
-56 4 69 48 127 -52 34 27
-127 73 127 36 -127 34 -44 -75
-95 3 -38 14 -64 15 -4 -127
-127 -98 50 64 -127 58 -6 -103
-127 -6 -12 56 123 41 -24 6
-82 104 72 67 -117 85 -49 -73
-83 19 -55 -47 -72 -122 23 48
-37 -127 -22 105 -87 90 31 -127
-60 -58 -82 70 57 117 -44 -23
-76 37 40 127 -31 24 118 -105
-127 72 -20 -68 -127 -127 48 -18
-31 -44 19 127 -76 82 -21 -97
13 -66 11 26 55 124 -107 -5
-1 31 -55 115 -59 0 127 -7
-11 43 -4 -127 -127 -31 0 -37
-61 -20 -72 121 -105 4 -40 -59
106 0 44 -42 -25 66 -127 18
26 -50 -122 102 -50 -12 26 74
28 -26 48 -112 -13 39 -41 -82
-90 -78 -125 82 -71 10 -97 -88
109 57 104 -77 -92 127 -101 93
100 -82 -121 29 8 -101 19 39
48 -64 85 -51 -26 52 -56 -32
-37 -35 -117 39 -14 -57 -127 -20
106 127 127 -127 -80 92 -38 127
108 -127 -112 -29 64 -127 -66 127
-1 -127 127 -61 -26 60 -127 99
-46 -31 -127 66 -10 -127 -93 -23

tfl.pseudo_qconst19 i1 [64, 1, 1, 32]
00000000: f10b 0ce5 dbfb 0e4e 4743 be1b cbd4 3d20
00000010: 4610 ed94 fc65 303a 1bff 7ffb f659 fd04
00000020: 00e9 11ad c8bf a5e3 f92a 1914 222e 5d37
00000030: cf2a e024 ccad 08df fe4b 905e 0181 49e1
00000040: 971a 2639 e311 431d 2037 161b fe21 3332
00000050: e481 c6a3 07fe d245 eece 0240 dc48 5c49
00000060: 277f cd00 0021 2717 24d3 f60d 5ae9 d90b
00000070: da0b 1c32 211b b74b 34a1 2806 f70e ec44
00000080: 1798 0331 c2bc a319 c3ab f057 1d7f e313
00000090: d1ee b806 edbf d43a ba1e a3ec 39e5 3461
000000a0: df39 81e7 a405 0a01 b825 ebda 04ca 3bed
000000b0: edb3 12e5 25ea fdfd fcf0 08d1 f3f2 05eb
000000c0: 0345 0154 d7dc c629 0f12 d327 05fc 1fc6
000000d0: d21e 6bef 3bfa 2052 74da 244e 150c 7fc1
000000e0: 02f7 01ff cc03 1e59 9624 38d9 0fcd 2d06
000000f0: 0c01 2081 3cd0 1fad 142f d8e7 16a9 28f8
-15 11 12 -27 -37 -5 14 78
71 67 -66 27 -53 -44 61 32
70 16 -19 -108 -4 101 48 58
27 -1 127 -5 -10 89 -3 4
0 -23 17 -83 -56 -65 -91 -29
-7 42 25 20 34 46 93 55
-49 42 -32 36 -52 -83 8 -33
-2 75 -112 94 1 -127 73 -31
-105 26 38 57 -29 17 67 29
32 55 22 27 -2 33 51 50
-28 -127 -58 -93 7 -2 -46 69
-18 -50 2 64 -36 72 92 73
39 127 -51 0 0 33 39 23
36 -45 -10 13 90 -23 -39 11
-38 11 28 50 33 27 -73 75
52 -95 40 6 -9 14 -20 68
23 -104 3 49 -62 -68 -93 25
-61 -85 -16 87 29 127 -29 19
-47 -18 -72 6 -19 -65 -44 58
-70 30 -93 -20 57 -27 52 97
-33 57 -127 -25 -92 5 10 1
-72 37 -21 -38 4 -54 59 -19
-19 -77 18 -27 37 -22 -3 -3
-4 -16 8 -47 -13 -14 5 -21
3 69 1 84 -41 -36 -58 41
15 18 -45 39 5 -4 31 -58
-46 30 107 -17 59 -6 32 82
116 -38 36 78 21 12 127 -63
2 -9 1 -1 -52 3 30 89
-106 36 56 -39 15 -51 45 6
12 1 32 -127 60 -48 31 -83
20 47 -40 -25 22 -87 40 -8

tfl.pseudo_qconst21 i1 [1, 5, 1, 32]
00000000: de7f 857f 9781 8141 0e7f 9559 e48d 199e
00000010: 6006 81e2 6f5f a21b 7c81 5a81 0353 7f7f
00000020: 8139 811f af94 8c53 a972 b27f 26b8 7e81
00000030: 7fe6 a7c5 7f3f 95ea 6c9f 55a9 2f7f 5d65
00000040: 0442 cedd 9ab4 f90a a24e 5d4a 2181 19a7
00000050: 60d3 befe 5800 b1b5 7fb3 e6f6 2c71 f358
00000060: e2fe 32b3 332a df81 812d 41fa 52d3 cdae
00000070: 04ef e050 42c1 4d81 5bce a34b 96ce bc58
00000080: d30f 359c 7f3f e1a2 8b35 7ffe 7fb6 81e5
00000090: d17f ce7f 6181 7fcf 23d2 8167 8188 a51f
-34 127 -123 127 -105 -127 -127 65
14 127 -107 89 -28 -115 25 -98
96 6 -127 -30 111 95 -94 27
124 -127 90 -127 3 83 127 127
-127 57 -127 31 -81 -108 -116 83
-87 114 -78 127 38 -72 126 -127
127 -26 -89 -59 127 63 -107 -22
108 -97 85 -87 47 127 93 101
4 66 -50 -35 -102 -76 -7 10
-94 78 93 74 33 -127 25 -89
96 -45 -66 -2 88 0 -79 -75
127 -77 -26 -10 44 113 -13 88
-30 -2 50 -77 51 42 -33 -127
-127 45 65 -6 82 -45 -51 -82
4 -17 -32 80 66 -63 77 -127
91 -50 -93 75 -106 -50 -68 88
-45 15 53 -100 127 63 -31 -94
-117 53 127 -2 127 -74 -127 -27
-47 127 -50 127 97 -127 127 -49
35 -46 -127 103 -127 -120 -91 31

tfl.pseudo_qconst23 i1 [32, 5, 1, 40]
00000000: cbb1 c518 f8cd 05e1 bba5 f9fd fd29 252f
00000010: 1c08 c0c7 0bd4 e8cb f2a5 d9b3 1c10 40d7
00000020: cffa e6c7 a7ee bceb 25d1 973d 0626 cf87
00000030: bb98 c0d1 b4fa 01e7 0f20 e495 d191 d6d6
00000040: fccf b307 d1bf c3bd 9bb8 fcaf a2e4 9ef4
00000050: 05f9 a91e f423 08a9 bad1 c081 acef f3f1
00000060: 34e3 bad8 fe92 95d2 d7fa f0ca 1700 becf
00000070: c9b0 d6da 03ad c4d4 11e0 080c d739 22f8
00000080: eea1 cee6 efe5 04eb fdcb f3d6 c4ec f5b8
00000090: ced9 f2d2 cbeb e6b7 a7bb e28f c8b8 d21c
000000a0: 371c 2ce3 d1ed 0ea7 e0d3 eddc fab2 e6b5
000000b0: 0ea8 bded d6c7 e7df ffd7 fa9a e212 ffc0
000000c0: e7a6 bfa9 8dc6 a3f8 0ee0 fe81 b8e2 13ee
000000d0: f7fd 2948 3c0b 3324 3621 3023 2de7 fcc3
000000e0: cea9 bce1 0bdd eccc fba7 07af 1fda 35f1
000000f0: 04f2 c79d dffa 2401 e5ea 1917 3522 2433
-53 -79 -59 24 -8 -51 5 -31
-69 -91 -7 -3 -3 41 37 47
28 8 -64 -57 11 -44 -24 -53
-14 -91 -39 -77 28 16 64 -41
-49 -6 -26 -57 -89 -18 -68 -21
37 -47 -105 61 6 38 -49 -121
-69 -104 -64 -47 -76 -6 1 -25
15 32 -28 -107 -47 -111 -42 -42
-4 -49 -77 7 -47 -65 -61 -67
-101 -72 -4 -81 -94 -28 -98 -12
5 -7 -87 30 -12 35 8 -87
-70 -47 -64 -127 -84 -17 -13 -15
52 -29 -70 -40 -2 -110 -107 -46
-41 -6 -16 -54 23 0 -66 -49
-55 -80 -42 -38 3 -83 -60 -44
17 -32 8 12 -41 57 34 -8
-18 -95 -50 -26 -17 -27 4 -21
-3 -53 -13 -42 -60 -20 -11 -72
-50 -39 -14 -46 -53 -21 -26 -73
-89 -69 -30 -113 -56 -72 -46 28
55 28 44 -29 -47 -19 14 -89
-32 -45 -19 -36 -6 -78 -26 -75
14 -88 -67 -19 -42 -57 -25 -33
-1 -41 -6 -102 -30 18 -1 -64
-25 -90 -65 -87 -115 -58 -93 -8
14 -32 -2 -127 -72 -30 19 -18
-9 -3 41 72 60 11 51 36
54 33 48 35 45 -25 -4 -61
-50 -87 -68 -31 11 -35 -20 -52
-5 -89 7 -81 31 -38 53 -15
4 -14 -57 -99 -33 -6 36 1
-27 -22 25 23 53 34 36 51

tfl.pseudo_qconst24 i1 [1, 14, 1, 64] scale=0.05580258 zero_point=-128
00000000: 8080 8080 8080 8080 8080 8080 8080 8080
00000010: 8080 8080 8080 8080 8080 8080 8080 8080
00000020: 8080 8080 8080 8080 8080 8080 8080 8080
00000030: 8080 8080 8080 8080 8080 8080 8080 8080
00000040: 8080 8080 8080 8080 8080 8080 8080 8080
00000050: 8080 8080 8080 8080 8080 8080 8080 8080
00000060: 8080 8080 8080 8080 8080 8080 8080 8080
00000070: 8080 8080 8080 8080 8080 8080 8080 8080
00000080: 8080 8080 8080 8080 8080 8080 8080 8080
00000090: 8080 8080 8080 8080 8080 8080 8080 8080
000000a0: 8080 8080 8080 8080 8080 8080 8080 8080
000000b0: 8080 8080 8080 8080 8080 8080 8080 8080
000000c0: 8080 8080 8080 8080 8080 8080 8080 8080
000000d0: 8080 8080 8080 8080 8080 8080 8080 8080
000000e0: 8080 8080 8080 8080 8080 8080 8080 8080
000000f0: 8080 8080 8080 8080 8080 8080 8080 8080
0.0 0.0 0.0 0.0 0.0 0.0 0.0 0.0
0.0 0.0 0.0 0.0 0.0 0.0 0.0 0.0
0.0 0.0 0.0 0.0 0.0 0.0 0.0 0.0
0.0 0.0 0.0 0.0 0.0 0.0 0.0 0.0
0.0 0.0 0.0 0.0 0.0 0.0 0.0 0.0
0.0 0.0 0.0 0.0 0.0 0.0 0.0 0.0
0.0 0.0 0.0 0.0 0.0 0.0 0.0 0.0
0.0 0.0 0.0 0.0 0.0 0.0 0.0 0.0
0.0 0.0 0.0 0.0 0.0 0.0 0.0 0.0
0.0 0.0 0.0 0.0 0.0 0.0 0.0 0.0
0.0 0.0 0.0 0.0 0.0 0.0 0.0 0.0
0.0 0.0 0.0 0.0 0.0 0.0 0.0 0.0
0.0 0.0 0.0 0.0 0.0 0.0 0.0 0.0
0.0 0.0 0.0 0.0 0.0 0.0 0.0 0.0
0.0 0.0 0.0 0.0 0.0 0.0 0.0 0.0
0.0 0.0 0.0 0.0 0.0 0.0 0.0 0.0
0.0 0.0 0.0 0.0 0.0 0.0 0.0 0.0
0.0 0.0 0.0 0.0 0.0 0.0 0.0 0.0
0.0 0.0 0.0 0.0 0.0 0.0 0.0 0.0
0.0 0.0 0.0 0.0 0.0 0.0 0.0 0.0
0.0 0.0 0.0 0.0 0.0 0.0 0.0 0.0
0.0 0.0 0.0 0.0 0.0 0.0 0.0 0.0
0.0 0.0 0.0 0.0 0.0 0.0 0.0 0.0
0.0 0.0 0.0 0.0 0.0 0.0 0.0 0.0
0.0 0.0 0.0 0.0 0.0 0.0 0.0 0.0
0.0 0.0 0.0 0.0 0.0 0.0 0.0 0.0
0.0 0.0 0.0 0.0 0.0 0.0 0.0 0.0
0.0 0.0 0.0 0.0 0.0 0.0 0.0 0.0
0.0 0.0 0.0 0.0 0.0 0.0 0.0 0.0
0.0 0.0 0.0 0.0 0.0 0.0 0.0 0.0
0.0 0.0 0.0 0.0 0.0 0.0 0.0 0.0
0.0 0.0 0.0 0.0 0.0 0.0 0.0 0.0

tfl.pseudo_qconst25 i1 [1, 10, 1, 64] scale=0.045270868 zero_point=-128
00000000: 8080 8080 8080 8080 8080 8080 8080 8080
00000010: 8080 8080 8080 8080 8080 8080 8080 8080
00000020: 8080 8080 8080 8080 8080 8080 8080 8080
00000030: 8080 8080 8080 8080 8080 8080 8080 8080
00000040: 8080 8080 8080 8080 8080 8080 8080 8080
00000050: 8080 8080 8080 8080 8080 8080 8080 8080
00000060: 8080 8080 8080 8080 8080 8080 8080 8080
00000070: 8080 8080 8080 8080 8080 8080 8080 8080
00000080: 8080 8080 8080 8080 8080 8080 8080 8080
00000090: 8080 8080 8080 8080 8080 8080 8080 8080
000000a0: 8080 8080 8080 8080 8080 8080 8080 8080
000000b0: 8080 8080 8080 8080 8080 8080 8080 8080
000000c0: 8080 8080 8080 8080 8080 8080 8080 8080
000000d0: 8080 8080 8080 8080 8080 8080 8080 8080
000000e0: 8080 8080 8080 8080 8080 8080 8080 8080
000000f0: 8080 8080 8080 8080 8080 8080 8080 8080
0.0 0.0 0.0 0.0 0.0 0.0 0.0 0.0
0.0 0.0 0.0 0.0 0.0 0.0 0.0 0.0
0.0 0.0 0.0 0.0 0.0 0.0 0.0 0.0
0.0 0.0 0.0 0.0 0.0 0.0 0.0 0.0
0.0 0.0 0.0 0.0 0.0 0.0 0.0 0.0
0.0 0.0 0.0 0.0 0.0 0.0 0.0 0.0
0.0 0.0 0.0 0.0 0.0 0.0 0.0 0.0
0.0 0.0 0.0 0.0 0.0 0.0 0.0 0.0
0.0 0.0 0.0 0.0 0.0 0.0 0.0 0.0
0.0 0.0 0.0 0.0 0.0 0.0 0.0 0.0
0.0 0.0 0.0 0.0 0.0 0.0 0.0 0.0
0.0 0.0 0.0 0.0 0.0 0.0 0.0 0.0
0.0 0.0 0.0 0.0 0.0 0.0 0.0 0.0
0.0 0.0 0.0 0.0 0.0 0.0 0.0 0.0
0.0 0.0 0.0 0.0 0.0 0.0 0.0 0.0
0.0 0.0 0.0 0.0 0.0 0.0 0.0 0.0
0.0 0.0 0.0 0.0 0.0 0.0 0.0 0.0
0.0 0.0 0.0 0.0 0.0 0.0 0.0 0.0
0.0 0.0 0.0 0.0 0.0 0.0 0.0 0.0
0.0 0.0 0.0 0.0 0.0 0.0 0.0 0.0
0.0 0.0 0.0 0.0 0.0 0.0 0.0 0.0
0.0 0.0 0.0 0.0 0.0 0.0 0.0 0.0
0.0 0.0 0.0 0.0 0.0 0.0 0.0 0.0
0.0 0.0 0.0 0.0 0.0 0.0 0.0 0.0
0.0 0.0 0.0 0.0 0.0 0.0 0.0 0.0
0.0 0.0 0.0 0.0 0.0 0.0 0.0 0.0
0.0 0.0 0.0 0.0 0.0 0.0 0.0 0.0
0.0 0.0 0.0 0.0 0.0 0.0 0.0 0.0
0.0 0.0 0.0 0.0 0.0 0.0 0.0 0.0
0.0 0.0 0.0 0.0 0.0 0.0 0.0 0.0
0.0 0.0 0.0 0.0 0.0 0.0 0.0 0.0
0.0 0.0 0.0 0.0 0.0 0.0 0.0 0.0

tfl.pseudo_qconst26 i1 [1, 4, 1, 32] scale=2.125324 zero_point=-128
00000000: 8080 8080 8080 8080 8080 8080 8080 8080
00000010: 8080 8080 8080 8080 8080 8080 8080 8080
00000020: 8080 8080 8080 8080 8080 8080 8080 8080
00000030: 8080 8080 8080 8080 8080 8080 8080 8080
00000040: 8080 8080 8080 8080 8080 8080 8080 8080
00000050: 8080 8080 8080 8080 8080 8080 8080 8080
00000060: 8080 8080 8080 8080 8080 8080 8080 8080
00000070: 8080 8080 8080 8080 8080 8080 8080 8080
0.0 0.0 0.0 0.0 0.0 0.0 0.0 0.0
0.0 0.0 0.0 0.0 0.0 0.0 0.0 0.0
0.0 0.0 0.0 0.0 0.0 0.0 0.0 0.0
0.0 0.0 0.0 0.0 0.0 0.0 0.0 0.0
0.0 0.0 0.0 0.0 0.0 0.0 0.0 0.0
0.0 0.0 0.0 0.0 0.0 0.0 0.0 0.0
0.0 0.0 0.0 0.0 0.0 0.0 0.0 0.0
0.0 0.0 0.0 0.0 0.0 0.0 0.0 0.0
0.0 0.0 0.0 0.0 0.0 0.0 0.0 0.0
0.0 0.0 0.0 0.0 0.0 0.0 0.0 0.0
0.0 0.0 0.0 0.0 0.0 0.0 0.0 0.0
0.0 0.0 0.0 0.0 0.0 0.0 0.0 0.0
0.0 0.0 0.0 0.0 0.0 0.0 0.0 0.0
0.0 0.0 0.0 0.0 0.0 0.0 0.0 0.0
0.0 0.0 0.0 0.0 0.0 0.0 0.0 0.0
0.0 0.0 0.0 0.0 0.0 0.0 0.0 0.0

tfl.pseudo_qconst27 i1 [1, 3, 1, 40] scale=0.101960786 zero_point=-128
00000000: 8080 8080 8080 8080 8080 8080 8080 8080
00000010: 8080 8080 8080 8080 8080 8080 8080 8080
00000020: 8080 8080 8080 8080 8080 8080 8080 8080
00000030: 8080 8080 8080 8080 8080 8080 8080 8080
00000040: 8080 8080 8080 8080 8080 8080 8080 8080
00000050: 8080 8080 8080 8080 8080 8080 8080 8080
00000060: 8080 8080 8080 8080 8080 8080 8080 8080
00000070: 8080 8080 8080 8080
0.0 0.0 0.0 0.0 0.0 0.0 0.0 0.0
0.0 0.0 0.0 0.0 0.0 0.0 0.0 0.0
0.0 0.0 0.0 0.0 0.0 0.0 0.0 0.0
0.0 0.0 0.0 0.0 0.0 0.0 0.0 0.0
0.0 0.0 0.0 0.0 0.0 0.0 0.0 0.0
0.0 0.0 0.0 0.0 0.0 0.0 0.0 0.0
0.0 0.0 0.0 0.0 0.0 0.0 0.0 0.0
0.0 0.0 0.0 0.0 0.0 0.0 0.0 0.0
0.0 0.0 0.0 0.0 0.0 0.0 0.0 0.0
0.0 0.0 0.0 0.0 0.0 0.0 0.0 0.0
0.0 0.0 0.0 0.0 0.0 0.0 0.0 0.0
0.0 0.0 0.0 0.0 0.0 0.0 0.0 0.0
0.0 0.0 0.0 0.0 0.0 0.0 0.0 0.0
0.0 0.0 0.0 0.0 0.0 0.0 0.0 0.0
0.0 0.0 0.0 0.0 0.0 0.0 0.0 0.0

tfl.pseudo_qconst28 i1 [1, 36, 1, 64] scale=0.0259817 zero_point=-128
00000000: 8080 8080 8080 8080 8080 8080 8080 8080
00000010: 8080 8080 8080 8080 8080 8080 8080 8080
00000020: 8080 8080 8080 8080 8080 8080 8080 8080
00000030: 8080 8080 8080 8080 8080 8080 8080 8080
00000040: 8080 8080 8080 8080 8080 8080 8080 8080
00000050: 8080 8080 8080 8080 8080 8080 8080 8080
00000060: 8080 8080 8080 8080 8080 8080 8080 8080
00000070: 8080 8080 8080 8080 8080 8080 8080 8080
00000080: 8080 8080 8080 8080 8080 8080 8080 8080
00000090: 8080 8080 8080 8080 8080 8080 8080 8080
000000a0: 8080 8080 8080 8080 8080 8080 8080 8080
000000b0: 8080 8080 8080 8080 8080 8080 8080 8080
000000c0: 8080 8080 8080 8080 8080 8080 8080 8080
000000d0: 8080 8080 8080 8080 8080 8080 8080 8080
000000e0: 8080 8080 8080 8080 8080 8080 8080 8080
000000f0: 8080 8080 8080 8080 8080 8080 8080 8080
0.0 0.0 0.0 0.0 0.0 0.0 0.0 0.0
0.0 0.0 0.0 0.0 0.0 0.0 0.0 0.0
0.0 0.0 0.0 0.0 0.0 0.0 0.0 0.0
0.0 0.0 0.0 0.0 0.0 0.0 0.0 0.0
0.0 0.0 0.0 0.0 0.0 0.0 0.0 0.0
0.0 0.0 0.0 0.0 0.0 0.0 0.0 0.0
0.0 0.0 0.0 0.0 0.0 0.0 0.0 0.0
0.0 0.0 0.0 0.0 0.0 0.0 0.0 0.0
0.0 0.0 0.0 0.0 0.0 0.0 0.0 0.0
0.0 0.0 0.0 0.0 0.0 0.0 0.0 0.0
0.0 0.0 0.0 0.0 0.0 0.0 0.0 0.0
0.0 0.0 0.0 0.0 0.0 0.0 0.0 0.0
0.0 0.0 0.0 0.0 0.0 0.0 0.0 0.0
0.0 0.0 0.0 0.0 0.0 0.0 0.0 0.0
0.0 0.0 0.0 0.0 0.0 0.0 0.0 0.0
0.0 0.0 0.0 0.0 0.0 0.0 0.0 0.0
0.0 0.0 0.0 0.0 0.0 0.0 0.0 0.0
0.0 0.0 0.0 0.0 0.0 0.0 0.0 0.0
0.0 0.0 0.0 0.0 0.0 0.0 0.0 0.0
0.0 0.0 0.0 0.0 0.0 0.0 0.0 0.0
0.0 0.0 0.0 0.0 0.0 0.0 0.0 0.0
0.0 0.0 0.0 0.0 0.0 0.0 0.0 0.0
0.0 0.0 0.0 0.0 0.0 0.0 0.0 0.0
0.0 0.0 0.0 0.0 0.0 0.0 0.0 0.0
0.0 0.0 0.0 0.0 0.0 0.0 0.0 0.0
0.0 0.0 0.0 0.0 0.0 0.0 0.0 0.0
0.0 0.0 0.0 0.0 0.0 0.0 0.0 0.0
0.0 0.0 0.0 0.0 0.0 0.0 0.0 0.0
0.0 0.0 0.0 0.0 0.0 0.0 0.0 0.0
0.0 0.0 0.0 0.0 0.0 0.0 0.0 0.0
0.0 0.0 0.0 0.0 0.0 0.0 0.0 0.0
0.0 0.0 0.0 0.0 0.0 0.0 0.0 0.0

tfl.pseudo_qconst29 i1 [1, 22, 1, 64] scale=0.049700353 zero_point=-128
00000000: 8080 8080 8080 8080 8080 8080 8080 8080
00000010: 8080 8080 8080 8080 8080 8080 8080 8080
00000020: 8080 8080 8080 8080 8080 8080 8080 8080
00000030: 8080 8080 8080 8080 8080 8080 8080 8080
00000040: 8080 8080 8080 8080 8080 8080 8080 8080
00000050: 8080 8080 8080 8080 8080 8080 8080 8080
00000060: 8080 8080 8080 8080 8080 8080 8080 8080
00000070: 8080 8080 8080 8080 8080 8080 8080 8080
00000080: 8080 8080 8080 8080 8080 8080 8080 8080
00000090: 8080 8080 8080 8080 8080 8080 8080 8080
000000a0: 8080 8080 8080 8080 8080 8080 8080 8080
000000b0: 8080 8080 8080 8080 8080 8080 8080 8080
000000c0: 8080 8080 8080 8080 8080 8080 8080 8080
000000d0: 8080 8080 8080 8080 8080 8080 8080 8080
000000e0: 8080 8080 8080 8080 8080 8080 8080 8080
000000f0: 8080 8080 8080 8080 8080 8080 8080 8080
0.0 0.0 0.0 0.0 0.0 0.0 0.0 0.0
0.0 0.0 0.0 0.0 0.0 0.0 0.0 0.0
0.0 0.0 0.0 0.0 0.0 0.0 0.0 0.0
0.0 0.0 0.0 0.0 0.0 0.0 0.0 0.0
0.0 0.0 0.0 0.0 0.0 0.0 0.0 0.0
0.0 0.0 0.0 0.0 0.0 0.0 0.0 0.0
0.0 0.0 0.0 0.0 0.0 0.0 0.0 0.0
0.0 0.0 0.0 0.0 0.0 0.0 0.0 0.0
0.0 0.0 0.0 0.0 0.0 0.0 0.0 0.0
0.0 0.0 0.0 0.0 0.0 0.0 0.0 0.0
0.0 0.0 0.0 0.0 0.0 0.0 0.0 0.0
0.0 0.0 0.0 0.0 0.0 0.0 0.0 0.0
0.0 0.0 0.0 0.0 0.0 0.0 0.0 0.0
0.0 0.0 0.0 0.0 0.0 0.0 0.0 0.0
0.0 0.0 0.0 0.0 0.0 0.0 0.0 0.0
0.0 0.0 0.0 0.0 0.0 0.0 0.0 0.0
0.0 0.0 0.0 0.0 0.0 0.0 0.0 0.0
0.0 0.0 0.0 0.0 0.0 0.0 0.0 0.0
0.0 0.0 0.0 0.0 0.0 0.0 0.0 0.0
0.0 0.0 0.0 0.0 0.0 0.0 0.0 0.0
0.0 0.0 0.0 0.0 0.0 0.0 0.0 0.0
0.0 0.0 0.0 0.0 0.0 0.0 0.0 0.0
0.0 0.0 0.0 0.0 0.0 0.0 0.0 0.0
0.0 0.0 0.0 0.0 0.0 0.0 0.0 0.0
0.0 0.0 0.0 0.0 0.0 0.0 0.0 0.0
0.0 0.0 0.0 0.0 0.0 0.0 0.0 0.0
0.0 0.0 0.0 0.0 0.0 0.0 0.0 0.0
0.0 0.0 0.0 0.0 0.0 0.0 0.0 0.0
0.0 0.0 0.0 0.0 0.0 0.0 0.0 0.0
0.0 0.0 0.0 0.0 0.0 0.0 0.0 0.0
0.0 0.0 0.0 0.0 0.0 0.0 0.0 0.0
0.0 0.0 0.0 0.0 0.0 0.0 0.0 0.0
