models/ok_kobold/ok_kobold.tflite (tflite, 63544 bytes, 18 tensors)

tfl.pseudo_qconst1 i1 [1, 2368] scale=0.010419455 zero_point=0
00000000: f814 dd1a e3f6 fd0c e0e9 f4e9 f3f6 e603
00000010: fcef 20e6 0b1b 2ee5 c7f8 fd0c feff eccb
00000020: 07d7 02f8 fbe3 f6f4 d0fc eee6 e9f9 07f2
00000030: 02fd e908 eaf0 e3f3 0afe f812 f8ec f2fb
00000040: 030f e809 f4fe 050e edf1 feec f8fa f204
00000050: fcf1 16e2 050d 21e6 e2f0 0304 00fb efd8
00000060: 08e7 03f9 fff4 00f3 dcf0 faeb f7ff 01f5
00000070: fcfa 0105 fae7 f1f5 08f5 f50d f7f7 f7fb
00000080: 0a09 f302 fbfa 0afd faff 09fb f8fb f100
00000090: f4f5 05e8 f102 0fed eaf3 fefe 01fc f4f2
000000a0: fbea 07ef 0df7 fee9 e5e5 f2ed f7ed 01f9
000000b0: f5f8 05ff fde9 f4eb 0cf1 000d ef08 f3f9
000000c0: 0507 f5fd f8ea 0cef fff8 09ed 0301 f40d
000000d0: fbf6 fdf1 f6fd 09e0 efe8 f6fc 0605 fd0b
000000e0: f9ec 02fb 00f8 fee1 e6f6 e6e9 f9f5 f5ef
000000f0: f9f7 0a05 07ea eef0 fef8 fd03 f60d ee06
-0.08335564 0.2083891 -0.36468095 0.27090585 -0.3021642 -0.10419455 -0.031258367 0.12503347
-0.33342257 -0.23964748 -0.12503347 -0.23964748 -0.13545293 -0.10419455 -0.27090585 0.031258367
-0.04167782 -0.17713074 0.33342257 -0.27090585 0.11461401 0.28132528 0.47929496 -0.28132528
-0.59390897 -0.08335564 -0.031258367 0.12503347 -0.02083891 -0.010419455 -0.2083891 -0.55223113
0.072936185 -0.42719766 0.02083891 -0.08335564 -0.052097276 -0.3021642 -0.10419455 -0.12503347
-0.5001339 -0.04167782 -0.1875502 -0.27090585 -0.23964748 -0.072936185 0.072936185 -0.14587237
0.02083891 -0.031258367 -0.23964748 0.08335564 -0.22922802 -0.16671129 -0.3021642 -0.13545293
0.10419455 -0.02083891 -0.08335564 0.1875502 -0.08335564 -0.2083891 -0.14587237 -0.052097276
0.031258367 0.15629183 -0.25006694 0.0937751 -0.12503347 -0.02083891 0.052097276 0.14587237
-0.19796965 -0.15629183 -0.02083891 -0.2083891 -0.08335564 -0.062516734 -0.14587237 0.04167782
-0.04167782 -0.15629183 0.22922802 -0.31258366 0.052097276 0.13545293 0.34384203 -0.27090585
-0.31258366 -0.16671129 0.031258367 0.04167782 0.0 -0.052097276 -0.17713074 -0.4167782
0.08335564 -0.2604864 0.031258367 -0.072936185 -0.010419455 -0.12503347 0.0 -0.13545293
-0.3751004 -0.16671129 -0.062516734 -0.21880856 -0.0937751 -0.010419455 0.010419455 -0.11461401
-0.04167782 -0.062516734 0.010419455 0.052097276 -0.062516734 -0.2604864 -0.15629183 -0.11461401
0.08335564 -0.11461401 -0.11461401 0.13545293 -0.0937751 -0.0937751 -0.0937751 -0.052097276
0.10419455 0.0937751 -0.13545293 0.02083891 -0.052097276 -0.062516734 0.10419455 -0.031258367
-0.062516734 -0.010419455 0.0937751 -0.052097276 -0.08335564 -0.052097276 -0.15629183 0.0
-0.12503347 -0.11461401 0.052097276 -0.25006694 -0.15629183 0.02083891 0.15629183 -0.19796965
-0.22922802 -0.13545293 -0.02083891 -0.02083891 0.010419455 -0.04167782 -0.12503347 -0.14587237
-0.052097276 -0.22922802 0.072936185 -0.17713074 0.13545293 -0.0937751 -0.02083891 -0.23964748
-0.28132528 -0.28132528 -0.14587237 -0.19796965 -0.0937751 -0.19796965 0.010419455 -0.072936185
-0.11461401 -0.08335564 0.052097276 -0.010419455 -0.031258367 -0.23964748 -0.12503347 -0.21880856
0.12503347 -0.15629183 0.0 0.13545293 -0.17713074 0.08335564 -0.13545293 -0.072936185
0.052097276 0.072936185 -0.11461401 -0.031258367 -0.08335564 -0.22922802 0.12503347 -0.17713074
-0.010419455 -0.08335564 0.0937751 -0.19796965 0.031258367 0.010419455 -0.12503347 0.13545293
-0.052097276 -0.10419455 -0.031258367 -0.15629183 -0.10419455 -0.031258367 0.0937751 -0.33342257
-0.17713074 -0.25006694 -0.10419455 -0.04167782 0.062516734 0.052097276 -0.031258367 0.11461401
-0.072936185 -0.2083891 0.02083891 -0.052097276 0.0 -0.08335564 -0.02083891 -0.3230031
-0.27090585 -0.10419455 -0.27090585 -0.23964748 -0.072936185 -0.11461401 -0.11461401 -0.17713074
-0.072936185 -0.0937751 0.10419455 0.052097276 0.072936185 -0.22922802 -0.1875502 -0.16671129
-0.02083891 -0.08335564 -0.031258367 0.031258367 -0.10419455 0.13545293 -0.1875502 0.062516734

tfl.pseudo_qconst3 i1 [64, 1, 1, 64]
00000000: 4f09 f203 08d8 eff1 fa1f 44b0 f303 2381
00000010: fb23 0ee2 fff1 dab9 3a3e 0312 393c e60a
00000020: f846 d3e1 44d1 b716 45d0 14ed 0d22 ceba
00000030: 20f4 faef 0e20 bb20 2217 c908 0e22 d1c9
00000040: 04f4 3419 d328 070e d7be 4de7 e224 3629
00000050: 7464 20bb ee25 f212 520b d562 4b21 6151
00000060: eaef e9ce 169c 7d90 e0dd 014a b2f6 9ffb
00000070: ba50 f84a 2bd9 b8f9 f494 4a1e 81f1 ef35
00000080: 14f7 2744 d134 f1d8 04ce 4b11 52f1 31da
00000090: e04c 8cc4 aa45 2334 f923 d8c0 3d05 f2cc
000000a0: ba65 b339 28b1 b504 1f61 2ad1 0cd9 cbfc
000000b0: f2f5 44ca a4c5 152c 7fe5 0049 ff01 032a
000000c0: 10dc 1f38 e113 e6fa ec01 ceec 011f 0bf6
000000d0: f4ea 19e9 f904 0f18 fdff e93e 0ade 2307
000000e0: f703 c4ea 5181 dfd6 c61e 27fc e950 0dd7
000000f0: 15fb f5f3 37d0 d93d c3e5 e946 f94f 1405
79 9 -14 3 8 -40 -17 -15
-6 31 68 -80 -13 3 35 -127
-5 35 14 -30 -1 -15 -38 -71
58 62 3 18 57 60 -26 10
-8 70 -45 -31 68 -47 -73 22
69 -48 20 -19 13 34 -50 -70
32 -12 -6 -17 14 32 -69 32
34 23 -55 8 14 34 -47 -55
4 -12 52 25 -45 40 7 14
-41 -66 77 -25 -30 36 54 41
116 100 32 -69 -18 37 -14 18
82 11 -43 98 75 33 97 81
-22 -17 -23 -50 22 -100 125 -112
-32 -35 1 74 -78 -10 -97 -5
-70 80 -8 74 43 -39 -72 -7
-12 -108 74 30 -127 -15 -17 53
20 -9 39 68 -47 52 -15 -40
4 -50 75 17 82 -15 49 -38
-32 76 -116 -60 -86 69 35 52
-7 35 -40 -64 61 5 -14 -52
-70 101 -77 57 40 -79 -75 4
31 97 42 -47 12 -39 -53 -4
-14 -11 68 -54 -92 -59 21 44
127 -27 0 73 -1 1 3 42
16 -36 31 56 -31 19 -26 -6
-20 1 -50 -20 1 31 11 -10
-12 -22 25 -23 -7 4 15 24
-3 -1 -23 62 10 -34 35 7
-9 3 -60 -22 81 -127 -33 -42
-58 30 39 -4 -23 80 13 -41
21 -5 -11 -13 55 -48 -39 61
-61 -27 -23 70 -7 79 20 5

tfl.pseudo_qconst5 i1 [1, 23, 1, 64]
00000000: 8cc4 35a7 de20 7fd6 f462 552e ef3e 7f4a
00000010: 7f81 2ec1 8c10 afe0 01c4 0c7f ebde c19d
00000020: 7f81 1ce7 8145 6d22 c788 5a49 128f a67f
00000030: 81e6 8181 ac5b 0bd6 7f32 d41e 09a2 b781
00000040: c7fb 3bac 010c 66ec 3544 6e2a 0c3d 5a69
00000050: 6699 15bf 860e b4bf 1bd4 0a69 fadd c187
00000060: 5a9c 17e8 a130 5f10 c081 3a42 3f93 8171
00000070: 89da 968f ca36 ead5 6010 c102 fca3 8b81
00000080: d618 38b0 e706 4ed2 dc56 7f15 4161 597f
00000090: 70b7 f39e 88ff b9b5 0eb7 1762 f8e1 d4a4
000000a0: 3594 20e9 ce29 4c05 da9d 6520 3096 9446
000000b0: 85e1 b2a7 f447 b4be 4fee b5f6 00a1 8a8b
000000c0: 361d 4acd ed06 3be9 b83f 780b 777f 2975
000000d0: 44bb 00c1 9a1b c3b2 2cb1 343b f3ea eca1
000000e0: 20ba 01d2 db18 3c00 e4ca 6c06 03c2 a646
000000f0: 9bed dbcd e93a d7ae 4cf5 90c4 0acf 88c8
-116 -60 53 -89 -34 32 127 -42
-12 98 85 46 -17 62 127 74
127 -127 46 -63 -116 16 -81 -32
1 -60 12 127 -21 -34 -63 -99
127 -127 28 -25 -127 69 109 34
-57 -120 90 73 18 -113 -90 127
-127 -26 -127 -127 -84 91 11 -42
127 50 -44 30 9 -94 -73 -127
-57 -5 59 -84 1 12 102 -20
53 68 110 42 12 61 90 105
102 -103 21 -65 -122 14 -76 -65
27 -44 10 105 -6 -35 -63 -121
90 -100 23 -24 -95 48 95 16
-64 -127 58 66 63 -109 -127 113
-119 -38 -106 -113 -54 54 -22 -43
96 16 -63 2 -4 -93 -117 -127
-42 24 56 -80 -25 6 78 -46
-36 86 127 21 65 97 89 127
112 -73 -13 -98 -120 -1 -71 -75
14 -73 23 98 -8 -31 -44 -92
53 -108 32 -23 -50 41 76 5
-38 -99 101 32 48 -106 -108 70
-123 -31 -78 -89 -12 71 -76 -66
79 -18 -75 -10 0 -95 -118 -117
54 29 74 -51 -19 6 59 -23
-72 63 120 11 119 127 41 117
68 -69 0 -63 -102 27 -61 -78
44 -79 52 59 -13 -22 -20 -95
32 -70 1 -46 -37 24 60 0
-28 -54 108 6 3 -62 -90 70
-101 -19 -37 -51 -23 58 -41 -82
76 -11 -112 -60 10 -49 -120 -56

tfl.pseudo_qconst7 i1 [64, 1, 1, 64]
00000000: 2803 bd48 e213 26f6 130a 210d 29fa edc8
00000010: 00db 34e4 bf0d ffe1 1906 fbce 1cf9 f2c6
00000020: 116f 29fc 58fe 244c e434 efc8 a8ec 318d
00000030: dbfc 603b 5aeb bc1c e228 2e81 d8eb 1963
00000040: ee0d 2fbc a2c3 2f14 1f05 1646 2620 04e8
00000050: 9bc6 36e9 6456 36e6 d1bc 2aed e221 bfc7
00000060: 17d6 f849 fbf4 d9e7 ef28 3950 ece8 810a
00000070: 5df6 4b59 5171 3f95 7ae4 23c0 a431 5418
00000080: 0c06 1034 e0e8 d640 e6f8 f011 f300 1646
00000090: 3938 281d 2120 da18 461d 3240 2033 7f45
000000a0: fffa c9ac 2c10 be14 f8d6 fcd5 1ef0 270b
000000b0: 0eec 200a be39 e511 e509 400e 12e0 bf24
000000c0: ede6 e3c5 bb30 aba3 ee18 1bd2 e0f8 2696
000000d0: 22e4 ec5c da0d f31c e31c 2eb5 525c e035
000000e0: f418 ee1b 19d2 87d6 d951 f6da 5a2b f07f
000000f0: 383b e8e9 1cfe 34cb 03f0 4d41 3238 07ae
40 3 -67 72 -30 19 38 -10
19 10 33 13 41 -6 -19 -56
0 -37 52 -28 -65 13 -1 -31
25 6 -5 -50 28 -7 -14 -58
17 111 41 -4 88 -2 36 76
-28 52 -17 -56 -88 -20 49 -115
-37 -4 96 59 90 -21 -68 28
-30 40 46 -127 -40 -21 25 99
-18 13 47 -68 -94 -61 47 20
31 5 22 70 38 32 4 -24
-101 -58 54 -23 100 86 54 -26
-47 -68 42 -19 -30 33 -65 -57
23 -42 -8 73 -5 -12 -39 -25
-17 40 57 80 -20 -24 -127 10
93 -10 75 89 81 113 63 -107
122 -28 35 -64 -92 49 84 24
12 6 16 52 -32 -24 -42 64
-26 -8 -16 17 -13 0 22 70
57 56 40 29 33 32 -38 24
70 29 50 64 32 51 127 69
-1 -6 -55 -84 44 16 -66 20
-8 -42 -4 -43 30 -16 39 11
14 -20 32 10 -66 57 -27 17
-27 9 64 14 18 -32 -65 36
-19 -26 -29 -59 -69 48 -85 -93
-18 24 27 -46 -32 -8 38 -106
34 -28 -20 92 -38 13 -13 28
-29 28 46 -75 82 92 -32 53
-12 24 -18 27 25 -46 -121 -42
-39 81 -10 -38 90 43 -16 127
56 59 -24 -23 28 -2 52 -53
3 -16 77 65 50 56 7 -82

tfl.pseudo_qconst9 i1 [1, 15, 1, 32]
00000000: 7fa0 1532 12b6 7f81 7f01 9ad9 1632 b51d
00000010: 6904 127f 2509 2d7f 6154 ae59 81d6 2333
00000020: ffe8 123e 39dc 5691 51e4 9bd9 0371 e842
00000030: 65c4 0140 bedf fa4c 3947 9c7a 91ad fcf8
00000040: 1fd9 ee57 2821 5297 efe9 98f5 0985 e047
00000050: e9b1 dc45 c48d e667 4612 be5e bb81 1cee
00000060: b70e 1525 462d 2293 f5ea a6e0 1dc7 e774
00000070: bb81 e94d bcc9 e551 250b bd42 8baa 0ff3
00000080: b723 1b17 3b45 1492 2f1d ddec 2702 bf7f
00000090: 96e2 0728 e581 083e f437 f72f c9ba 13cc
000000a0: dff0 15fe 055d 08a8 00f1 bacb 440a 917e
000000b0: 81da 3118 d2c3 0a56 f61b fd53 9ebe 04c2
000000c0: 9830 0902 f426 cdbc 2cf5 f9cf 6911 815b
000000d0: 919d 1639 13ce f343 e42d 0337 ad0d c3cc
000000e0: d826 2602 db15 cdc4 57d5 1ed3 6643 9954
000000f0: bcc2 d42f e2ee 1109 f437 ed0f b739 bdd8
127 -96 21 50 18 -74 127 -127
127 1 -102 -39 22 50 -75 29
105 4 18 127 37 9 45 127
97 84 -82 89 -127 -42 35 51
-1 -24 18 62 57 -36 86 -111
81 -28 -101 -39 3 113 -24 66
101 -60 1 64 -66 -33 -6 76
57 71 -100 122 -111 -83 -4 -8
31 -39 -18 87 40 33 82 -105
-17 -23 -104 -11 9 -123 -32 71
-23 -79 -36 69 -60 -115 -26 103
70 18 -66 94 -69 -127 28 -18
-73 14 21 37 70 45 34 -109
-11 -22 -90 -32 29 -57 -25 116
-69 -127 -23 77 -68 -55 -27 81
37 11 -67 66 -117 -86 15 -13
-73 35 27 23 59 69 20 -110
47 29 -35 -20 39 2 -65 127
-106 -30 7 40 -27 -127 8 62
-12 55 -9 47 -55 -70 19 -52
-33 -16 21 -2 5 93 8 -88
0 -15 -70 -53 68 10 -111 126
-127 -38 49 24 -46 -61 10 86
-10 27 -3 83 -98 -66 4 -62
-104 48 9 2 -12 38 -51 -68
44 -11 -7 -49 105 17 -127 91
-111 -99 22 57 19 -50 -13 67
-28 45 3 55 -83 13 -61 -52
-40 38 38 2 -37 21 -51 -60
87 -43 30 -45 102 67 -103 84
-68 -62 -44 47 -30 -18 17 9
-12 55 -19 15 -73 57 -67 -40

tfl.pseudo_qconst11 i1 [1, 9, 1, 32]
00000000: 1742 8ca2 0c81 12f2 7f33 8165 9762 0f0c
00000010: dbee f3d5 6f81 ab10 7ff9 e162 d0c1 f925
00000020: f40f 81c8 cea7 253d 7c17 b8f4 d06e f41f
00000030: dbab ed11 7fa3 8151 252e 062d 06b4 056f
00000040: f249 f8c7 8e03 fa07 163d c4f9 c0fd fddd
00000050: 04d8 edd7 6ccd 2105 3a58 e741 1c81 097f
00000060: 2c32 42b7 8108 fffa 3f7f d9cb e652 d2c4
00000070: e6f8 ed01 4fb1 3965 f379 122e 0893 f539
00000080: 2b21 2b9c 8223 f3b3 6451 e1bf 7f2e a8bb
00000090: 2022 c70b 5dd9 e618 945f f00f 73c1 0b37
000000a0: 4f49 69fd 9568 ef8f 1625 a1ac 57e4 bd81
000000b0: 11ff c314 4ec5 8b41 92fc 1bd0 7f8b 27c5
000000c0: 197f 6a15 2006 c481 e70a e281 5458 1d96
000000d0: 0a7f b157 37e4 b17f 90ba 36d8 709d 33c4
000000e0: 6b33 7475 110b c49b 26be dc8a 0b1b 68a9
000000f0: 1760 815a bbd3 c67e c0bb 6585 6d8a 4bae
23 66 -116 -94 12 -127 18 -14
127 51 -127 101 -105 98 15 12
-37 -18 -13 -43 111 -127 -85 16
127 -7 -31 98 -48 -63 -7 37
-12 15 -127 -56 -50 -89 37 61
124 23 -72 -12 -48 110 -12 31
-37 -85 -19 17 127 -93 -127 81
37 46 6 45 6 -76 5 111
-14 73 -8 -57 -114 3 -6 7
22 61 -60 -7 -64 -3 -3 -35
4 -40 -19 -41 108 -51 33 5
58 88 -25 65 28 -127 9 127
44 50 66 -73 -127 8 -1 -6
63 127 -39 -53 -26 82 -46 -60
-26 -8 -19 1 79 -79 57 101
-13 121 18 46 8 -109 -11 57
43 33 43 -100 -126 35 -13 -77
100 81 -31 -65 127 46 -88 -69
32 34 -57 11 93 -39 -26 24
-108 95 -16 15 115 -63 11 55
79 73 105 -3 -107 104 -17 -113
22 37 -95 -84 87 -28 -67 -127
17 -1 -61 20 78 -59 -117 65
-110 -4 27 -48 127 -117 39 -59
25 127 106 21 32 6 -60 -127
-25 10 -30 -127 84 88 29 -106
10 127 -79 87 55 -28 -79 127
-112 -70 54 -40 112 -99 51 -60
107 51 116 117 17 11 -60 -101
38 -66 -36 -118 11 27 104 -87
23 96 -127 90 -69 -45 -58 126
-64 -69 101 -123 109 -118 75 -82

tfl.pseudo_qconst13 i1 [64, 1, 1, 64]
00000000: 27c3 e745 04e2 56b5 05bd ce53 0f11 47ce
00000010: fe12 13f5 131e cdf1 f3e9 f381 f93a e319
00000020: 3518 d807 0bc3 a1ee b619 bbb8 11e1 e12b
00000030: 242a d529 17d7 2bc9 e400 e3e1 f1d0 25c4
00000040: 2b39 2508 3fd7 2e13 4ec8 e30d aec2 11bc
00000050: c500 c8fb ff01 da18 fa14 ceec 3014 15f2
00000060: 2939 db0b befd e6f6 e234 7fed efdc c929
00000070: 17f3 15c4 15e1 2230 0329 a112 c6f0 d0de
00000080: f9f5 1203 fafc d39a d231 00e0 1f09 c830
00000090: d5fd ff14 dfec 18f3 501f 1d08 0c37 f9f8
000000a0: 08ed 0dfb c2db fe15 dff5 7f02 e633 f20e
000000b0: f1f8 0710 e1e2 0309 29ec 1271 040c 2e4a
000000c0: fcdb bbb5 0516 e80f d920 1304 cdcf 171e
000000d0: 28f2 1bd3 1cf4 2ad2 c713 2ce7 0c1b 8952
000000e0: fefe 1f3d c5ce e1f7 01de f400 1d25 f0e1
000000f0: f417 aa2f 3181 25e1 e503 b8ca e79e 10b7
39 -61 -25 69 4 -30 86 -75
5 -67 -50 83 15 17 71 -50
-2 18 19 -11 19 30 -51 -15
-13 -23 -13 -127 -7 58 -29 25
53 24 -40 7 11 -61 -95 -18
-74 25 -69 -72 17 -31 -31 43
36 42 -43 41 23 -41 43 -55
-28 0 -29 -31 -15 -48 37 -60
43 57 37 8 63 -41 46 19
78 -56 -29 13 -82 -62 17 -68
-59 0 -56 -5 -1 1 -38 24
-6 20 -50 -20 48 20 21 -14
41 57 -37 11 -66 -3 -26 -10
-30 52 127 -19 -17 -36 -55 41
23 -13 21 -60 21 -31 34 48
3 41 -95 18 -58 -16 -48 -34
-7 -11 18 3 -6 -4 -45 -102
-46 49 0 -32 31 9 -56 48
-43 -3 -1 20 -33 -20 24 -13
80 31 29 8 12 55 -7 -8
8 -19 13 -5 -62 -37 -2 21
-33 -11 127 2 -26 51 -14 14
-15 -8 7 16 -31 -30 3 9
41 -20 18 113 4 12 46 74
-4 -37 -69 -75 5 22 -24 15
-39 32 19 4 -51 -49 23 30
40 -14 27 -45 28 -12 42 -46
-57 19 44 -25 12 27 -119 82
-2 -2 31 61 -59 -50 -31 -9
1 -34 -12 0 29 37 -16 -31
-12 23 -86 47 49 -127 37 -31
-27 3 -72 -54 -25 -98 16 -73

tfl.pseudo_qconst15 i1 [1, 11, 1, 32]
00000000: 813e e87f a77f 1874 874a 27d3 c67f 040d
00000010: bd1f 818d 1014 5af3 810d 68c6 0d2d 1d44
00000020: 951a bb79 b45d 2d7f 907f 47af bb56 f327
00000030: b805 ba8c 22f2 69fb a543 01bf 286c 4b2c
00000040: c219 0154 a1f4 1a4f 8558 3281 e55f 2e08
00000050: dbf6 9bdb 14e0 46f7 8f15 4bac 577f 3454
00000060: b224 c5df e1d0 1b30 c509 38b4 4a2a 0a17
00000070: 24ff eef1 09ac 2cfa 03bc 5dad 6a3a 6d7f
00000080: cf20 8f93 f3d5 241b 2425 3ebd 37ca 33fb
00000090: 3147 ee09 18b8 43f0 d7a2 deb0 4f56 496e
000000a0: e3db eea7 f2af 1917 6ba7 f9f5 59cd 2326
000000b0: 2450 fd5b 2214 effa f11c c1e9 fd1a 0667
000000c0: ddb5 e5b4 27dc 120b 7fe4 cb64 7fc3 2360
000000d0: ea37 534a fb15 e5d3 427f 0dde 0140 1c2a
000000e0: e49b 81c4 1ded e3f6 4fc3 cd4d 52f1 715c
000000f0: ee09 636b a134 d2e5 2848 810b b6d8 06e8
-127 62 -24 127 -89 127 24 116
-121 74 39 -45 -58 127 4 13
-67 31 -127 -115 16 20 90 -13
-127 13 104 -58 13 45 29 68
-107 26 -69 121 -76 93 45 127
-112 127 71 -81 -69 86 -13 39
-72 5 -70 -116 34 -14 105 -5
-91 67 1 -65 40 108 75 44
-62 25 1 84 -95 -12 26 79
-123 88 50 -127 -27 95 46 8
-37 -10 -101 -37 20 -32 70 -9
-113 21 75 -84 87 127 52 84
-78 36 -59 -33 -31 -48 27 48
-59 9 56 -76 74 42 10 23
36 -1 -18 -15 9 -84 44 -6
3 -68 93 -83 106 58 109 127
-49 32 -113 -109 -13 -43 36 27
36 37 62 -67 55 -54 51 -5
49 71 -18 9 24 -72 67 -16
-41 -94 -34 -80 79 86 73 110
-29 -37 -18 -89 -14 -81 25 23
107 -89 -7 -11 89 -51 35 38
36 80 -3 91 34 20 -17 -6
-15 28 -63 -23 -3 26 6 103
-35 -75 -27 -76 39 -36 18 11
127 -28 -53 100 127 -61 35 96
-22 55 83 74 -5 21 -27 -45
66 127 13 -34 1 64 28 42
-28 -101 -127 -60 29 -19 -29 -10
79 -61 -51 77 82 -15 113 92
-18 9 99 107 -95 52 -46 -27
40 72 -127 11 -74 -40 6 -24

tfl.pseudo_qconst17 i1 [1, 7, 1, 32]
00000000: 1481 81b4 4438 c6cf f5dd 197f 27e8 5e47
00000010: b426 4981 beb4 e57f 7fda 3802 17c2 6467
00000020: 00c4 87b1 1c1f c5d6 c4a9 f1f9 f3cc fd67
00000030: 02e4 0ed4 5511 d96c 2089 aed8 279b 2816
00000040: 1005 dee1 4112 d44c d4af 0d6d ebf2 0169
00000050: 33d4 ef4f 76f8 e5fc d881 8a0e 58cf 02be
00000060: fd5f ddc5 dedf d56e c5d5 453d dc3b 7f5f
00000070: 1b9f 0d51 5df0 fefa ac0d d543 5da6 ef85
00000080: bc1e ffa6 b615 066e b7e7 7f13 3278 f704
00000090: 1af3 7ff1 dc29 f0ef 8da4 817f 0581 eb81
000000a0: d834 cc11 0344 4b11 8181 0537 687f 0096
000000b0: 3b61 7adb 815c bb23 cc94 8e79 98d4 c1ae
000000c0: 81ca 5b7f 7f7f 7f81 bda1 fbda 7f69 ae81
000000d0: 7f7f 581a 157f 813d 44ba 1475 81f1 81fa
20 -127 -127 -76 68 56 -58 -49
-11 -35 25 127 39 -24 94 71
-76 38 73 -127 -66 -76 -27 127
127 -38 56 2 23 -62 100 103
0 -60 -121 -79 28 31 -59 -42
-60 -87 -15 -7 -13 -52 -3 103
2 -28 14 -44 85 17 -39 108
32 -119 -82 -40 39 -101 40 22
16 5 -34 -31 65 18 -44 76
-44 -81 13 109 -21 -14 1 105
51 -44 -17 79 118 -8 -27 -4
-40 -127 -118 14 88 -49 2 -66
-3 95 -35 -59 -34 -33 -43 110
-59 -43 69 61 -36 59 127 95
27 -97 13 81 93 -16 -2 -6
-84 13 -43 67 93 -90 -17 -123
-68 30 -1 -90 -74 21 6 110
-73 -25 127 19 50 120 -9 4
26 -13 127 -15 -36 41 -16 -17
-115 -92 -127 127 5 -127 -21 -127
-40 52 -52 17 3 68 75 17
-127 -127 5 55 104 127 0 -106
59 97 122 -37 -127 92 -69 35
-52 -108 -114 121 -104 -44 -63 -82
-127 -54 91 127 127 127 127 -127
-67 -95 -5 -38 127 105 -82 -127
127 127 88 26 21 127 -127 61
68 -70 20 117 -127 -15 -127 -6

tfl.pseudo_qconst19 i1 [64, 1, 1, 32]
00000000: 0b0c d7e9 7fbd e50e 0800 2010 3b21 27e7
00000010: 20fc cf22 0cde 3315 f508 e621 04df e4d5
00000020: f231 cec3 02ff ae53 dee2 1d32 fad0 ef00
00000030: e70f 1645 7f00 dfec d233 10c5 bd2b b51e
00000040: fca4 00ff d9f4 060b 4c25 e3fa 3810 f481
00000050: efe3 07a9 8337 f0f9 f5a9 e8e1 31f9 fdeb
00000060: 011f 1730 dfc5 f503 334f 487f 9d91 c5ed
00000070: c2ed 32fd de3a 09e0 2bea 1f3e 4d48 0907
00000080: 9e13 6ff2 b407 f060 c92d 46f2 f1f1 a2ae
00000090: 666a c60b e995 2ee8 f223 da72 18b7 f87f
000000a0: eb10 25fd 79aa 0b07 14d1 f6f0 1940 08bc
000000b0: 14f3 f5e7 420d 0c08 eca4 fce0 560a 81c9
000000c0: 11cc 4837 06e8 0b12 b70a bc5a 1208 042d
000000d0: 0532 31d9 f663 7f05 1896 0d22 0654 51ed
000000e0: 2ef5 eb1a f428 f202 2681 13fa e61f 0fbc
000000f0: f30c 0c08 1035 d10c de35 ef31 3fd1 0e2a
11 12 -41 -23 127 -67 -27 14
8 0 32 16 59 33 39 -25
32 -4 -49 34 12 -34 51 21
-11 8 -26 33 4 -33 -28 -43
-14 49 -50 -61 2 -1 -82 83
-34 -30 29 50 -6 -48 -17 0
-25 15 22 69 127 0 -33 -20
-46 51 16 -59 -67 43 -75 30
-4 -92 0 -1 -39 -12 6 11
76 37 -29 -6 56 16 -12 -127
-17 -29 7 -87 -125 55 -16 -7
-11 -87 -24 -31 49 -7 -3 -21
1 31 23 48 -33 -59 -11 3
51 79 72 127 -99 -111 -59 -19
-62 -19 50 -3 -34 58 9 -32
43 -22 31 62 77 72 9 7
-98 19 111 -14 -76 7 -16 96
-55 45 70 -14 -15 -15 -94 -82
102 106 -58 11 -23 -107 46 -24
-14 35 -38 114 24 -73 -8 127
-21 16 37 -3 121 -86 11 7
20 -47 -10 -16 25 64 8 -68
20 -13 -11 -25 66 13 12 8
-20 -92 -4 -32 86 10 -127 -55
17 -52 72 55 6 -24 11 18
-73 10 -68 90 18 8 4 45
5 50 49 -39 -10 99 127 5
24 -106 13 34 6 84 81 -19
46 -11 -21 26 -12 40 -14 2
38 -127 19 -6 -26 31 15 -68
-13 12 12 8 16 53 -47 12
-34 53 -17 49 63 -47 14 42

tfl.pseudo_qconst21 i1 [1, 5, 1, 32]
00000000: 86b9 f681 7f9d b481 240c 507f 72c8 d6b6
00000010: 1eea f6b9 8551 e872 e7f4 4181 9481 d023
00000020: 65f9 7f8a 76da 018b 7fc3 3f4c f781 54d0
00000030: 47eb eda4 d91c e500 d1af f1ae fade a11a
00000040: 7ff0 71e8 fe41 8230 55a4 2a92 f290 04b8
00000050: 098e 0bb9 7f19 dc6b 81d6 d536 2a36 af7f
00000060: a839 fabe da7f 8277 5f08 7f11 702d 7f81
00000070: be98 0f9a 5eab 467b b57f a1d1 3428 817a
00000080: 887f fe9c 8c38 812f 377f 3e92 7f1e 1e8f
00000090: 7f81 8181 f481 817f cc1b 8198 7f33 a50d
-122 -71 -10 -127 127 -99 -76 -127
36 12 80 127 114 -56 -42 -74
30 -22 -10 -71 -123 81 -24 114
-25 -12 65 -127 -108 -127 -48 35
101 -7 127 -118 118 -38 1 -117
127 -61 63 76 -9 -127 84 -48
71 -21 -19 -92 -39 28 -27 0
-47 -81 -15 -82 -6 -34 -95 26
127 -16 113 -24 -2 65 -126 48
85 -92 42 -110 -14 -112 4 -72
9 -114 11 -71 127 25 -36 107
-127 -42 -43 54 42 54 -81 127
-88 57 -6 -66 -38 127 -126 119
95 8 127 17 112 45 127 -127
-66 -104 15 -102 94 -85 70 123
-75 127 -95 -47 52 40 -127 122
-120 127 -2 -100 -116 56 -127 47
55 127 62 -110 127 30 30 -113
127 -127 -127 -127 -12 -127 -127 127
-52 27 -127 -104 127 51 -91 13

tfl.pseudo_qconst23 i1 [32, 5, 1, 40]
00000000: b9db 07e0 e427 094f e0dd 12f6 01ec dd16
00000010: 041c 0f1e ce00 1023 2236 120a 2a18 ec00
00000020: c6e4 d90e f20a db2c 97ef c4fd ff14 1522
00000030: d0c9 0bce 0804 0f3b 0704 131b effb 0f02
00000040: 3947 1317 30ee eb06 02f3 ef06 0540 257f
00000050: d8d0 e415 0139 350c f3d7 0ad7 f1fc e9fa
00000060: 1a23 0be7 b80d e1f7 1137 15f3 1a13 282e
00000070: eaf9 fcf8 2a36 1378 eded cef9 314b fe0d
00000080: ebb8 d7ce e20b 1325 17ef ffea ebd6 f2bf
00000090: 0d07 05dd e7cd eef4 e902 fefc 1c23 2475
000000a0: e2d4 d6ec f10d 19fe e8d1 f1bd c51a 231a
000000b0: 2319 22c3 bcc2 e2cf ef13 efd2 bb92 d3b4
000000c0: 999d cec4 ec03 ea07 0240 5133 2315 1817
000000d0: 22f9 0df3 13d4 f0e8 e3e2 f3e0 ca08 0c25
000000e0: 1b39 fa1c 0bf6 f813 2218 1bf6 1912 3923
000000f0: 3d4c 501c fb03 161c f6df 1e05 0ef0 f1f3
-71 -37 7 -32 -28 39 9 79
-32 -35 18 -10 1 -20 -35 22
4 28 15 30 -50 0 16 35
34 54 18 10 42 24 -20 0
-58 -28 -39 14 -14 10 -37 44
-105 -17 -60 -3 -1 20 21 34
-48 -55 11 -50 8 4 15 59
7 4 19 27 -17 -5 15 2
57 71 19 23 48 -18 -21 6
2 -13 -17 6 5 64 37 127
-40 -48 -28 21 1 57 53 12
-13 -41 10 -41 -15 -4 -23 -6
26 35 11 -25 -72 13 -31 -9
17 55 21 -13 26 19 40 46
-22 -7 -4 -8 42 54 19 120
-19 -19 -50 -7 49 75 -2 13
-21 -72 -41 -50 -30 11 19 37
23 -17 -1 -22 -21 -42 -14 -65
13 7 5 -35 -25 -51 -18 -12
-23 2 -2 -4 28 35 36 117
-30 -44 -42 -20 -15 13 25 -2
-24 -47 -15 -67 -59 26 35 26
35 25 34 -61 -68 -62 -30 -49
-17 19 -17 -46 -69 -110 -45 -76
-103 -99 -50 -60 -20 3 -22 7
2 64 81 51 35 21 24 23
34 -7 13 -13 19 -44 -16 -24
-29 -30 -13 -32 -54 8 12 37
27 57 -6 28 11 -10 -8 19
34 24 27 -10 25 18 57 35
61 76 80 28 -5 3 22 28
-10 -33 30 5 14 -16 -15 -13

tfl.pseudo_qconst24 i1 [1, 14, 1, 64] scale=0.05144993 zero_point=-128
00000000: 8080 8080 8080 8080 8080 8080 8080 8080
00000010: 8080 8080 8080 8080 8080 8080 8080 8080
00000020: 8080 8080 8080 8080 8080 8080 8080 8080
00000030: 8080 8080 8080 8080 8080 8080 8080 8080
00000040: 8080 8080 8080 8080 8080 8080 8080 8080
00000050: 8080 8080 8080 8080 8080 8080 8080 8080
00000060: 8080 8080 8080 8080 8080 8080 8080 8080
00000070: 8080 8080 8080 8080 8080 8080 8080 8080
00000080: 8080 8080 8080 8080 8080 8080 8080 8080
00000090: 8080 8080 8080 8080 8080 8080 8080 8080
000000a0: 8080 8080 8080 8080 8080 8080 8080 8080
000000b0: 8080 8080 8080 8080 8080 8080 8080 8080
000000c0: 8080 8080 8080 8080 8080 8080 8080 8080
000000d0: 8080 8080 8080 8080 8080 8080 8080 8080
000000e0: 8080 8080 8080 8080 8080 8080 8080 8080
000000f0: 8080 8080 8080 8080 8080 8080 8080 8080
0.0 0.0 0.0 0.0 0.0 0.0 0.0 0.0
0.0 0.0 0.0 0.0 0.0 0.0 0.0 0.0
0.0 0.0 0.0 0.0 0.0 0.0 0.0 0.0
0.0 0.0 0.0 0.0 0.0 0.0 0.0 0.0
0.0 0.0 0.0 0.0 0.0 0.0 0.0 0.0
0.0 0.0 0.0 0.0 0.0 0.0 0.0 0.0
0.0 0.0 0.0 0.0 0.0 0.0 0.0 0.0
0.0 0.0 0.0 0.0 0.0 0.0 0.0 0.0
0.0 0.0 0.0 0.0 0.0 0.0 0.0 0.0
0.0 0.0 0.0 0.0 0.0 0.0 0.0 0.0
0.0 0.0 0.0 0.0 0.0 0.0 0.0 0.0
0.0 0.0 0.0 0.0 0.0 0.0 0.0 0.0
0.0 0.0 0.0 0.0 0.0 0.0 0.0 0.0
0.0 0.0 0.0 0.0 0.0 0.0 0.0 0.0
0.0 0.0 0.0 0.0 0.0 0.0 0.0 0.0
0.0 0.0 0.0 0.0 0.0 0.0 0.0 0.0
0.0 0.0 0.0 0.0 0.0 0.0 0.0 0.0
0.0 0.0 0.0 0.0 0.0 0.0 0.0 0.0
0.0 0.0 0.0 0.0 0.0 0.0 0.0 0.0
0.0 0.0 0.0 0.0 0.0 0.0 0.0 0.0
0.0 0.0 0.0 0.0 0.0 0.0 0.0 0.0
0.0 0.0 0.0 0.0 0.0 0.0 0.0 0.0
0.0 0.0 0.0 0.0 0.0 0.0 0.0 0.0
0.0 0.0 0.0 0.0 0.0 0.0 0.0 0.0
0.0 0.0 0.0 0.0 0.0 0.0 0.0 0.0
0.0 0.0 0.0 0.0 0.0 0.0 0.0 0.0
0.0 0.0 0.0 0.0 0.0 0.0 0.0 0.0
0.0 0.0 0.0 0.0 0.0 0.0 0.0 0.0
0.0 0.0 0.0 0.0 0.0 0.0 0.0 0.0
0.0 0.0 0.0 0.0 0.0 0.0 0.0 0.0
0.0 0.0 0.0 0.0 0.0 0.0 0.0 0.0
0.0 0.0 0.0 0.0 0.0 0.0 0.0 0.0

tfl.pseudo_qconst25 i1 [1, 10, 1, 64] scale=0.048644736 zero_point=-128
00000000: 8080 8080 8080 8080 8080 8080 8080 8080
00000010: 8080 8080 8080 8080 8080 8080 8080 8080
00000020: 8080 8080 8080 8080 8080 8080 8080 8080
00000030: 8080 8080 8080 8080 8080 8080 8080 8080
00000040: 8080 8080 8080 8080 8080 8080 8080 8080
00000050: 8080 8080 8080 8080 8080 8080 8080 8080
00000060: 8080 8080 8080 8080 8080 8080 8080 8080
00000070: 8080 8080 8080 8080 8080 8080 8080 8080
00000080: 8080 8080 8080 8080 8080 8080 8080 8080
00000090: 8080 8080 8080 8080 8080 8080 8080 8080
000000a0: 8080 8080 8080 8080 8080 8080 8080 8080
000000b0: 8080 8080 8080 8080 8080 8080 8080 8080
000000c0: 8080 8080 8080 8080 8080 8080 8080 8080
000000d0: 8080 8080 8080 8080 8080 8080 8080 8080
000000e0: 8080 8080 8080 8080 8080 8080 8080 8080
000000f0: 8080 8080 8080 8080 8080 8080 8080 8080
0.0 0.0 0.0 0.0 0.0 0.0 0.0 0.0
0.0 0.0 0.0 0.0 0.0 0.0 0.0 0.0
0.0 0.0 0.0 0.0 0.0 0.0 0.0 0.0
0.0 0.0 0.0 0.0 0.0 0.0 0.0 0.0
0.0 0.0 0.0 0.0 0.0 0.0 0.0 0.0
0.0 0.0 0.0 0.0 0.0 0.0 0.0 0.0
0.0 0.0 0.0 0.0 0.0 0.0 0.0 0.0
0.0 0.0 0.0 0.0 0.0 0.0 0.0 0.0
0.0 0.0 0.0 0.0 0.0 0.0 0.0 0.0
0.0 0.0 0.0 0.0 0.0 0.0 0.0 0.0
0.0 0.0 0.0 0.0 0.0 0.0 0.0 0.0
0.0 0.0 0.0 0.0 0.0 0.0 0.0 0.0
0.0 0.0 0.0 0.0 0.0 0.0 0.0 0.0
0.0 0.0 0.0 0.0 0.0 0.0 0.0 0.0
0.0 0.0 0.0 0.0 0.0 0.0 0.0 0.0
0.0 0.0 0.0 0.0 0.0 0.0 0.0 0.0
0.0 0.0 0.0 0.0 0.0 0.0 0.0 0.0
0.0 0.0 0.0 0.0 0.0 0.0 0.0 0.0
0.0 0.0 0.0 0.0 0.0 0.0 0.0 0.0
0.0 0.0 0.0 0.0 0.0 0.0 0.0 0.0
0.0 0.0 0.0 0.0 0.0 0.0 0.0 0.0
0.0 0.0 0.0 0.0 0.0 0.0 0.0 0.0
0.0 0.0 0.0 0.0 0.0 0.0 0.0 0.0
0.0 0.0 0.0 0.0 0.0 0.0 0.0 0.0
0.0 0.0 0.0 0.0 0.0 0.0 0.0 0.0
0.0 0.0 0.0 0.0 0.0 0.0 0.0 0.0
0.0 0.0 0.0 0.0 0.0 0.0 0.0 0.0
0.0 0.0 0.0 0.0 0.0 0.0 0.0 0.0
0.0 0.0 0.0 0.0 0.0 0.0 0.0 0.0
0.0 0.0 0.0 0.0 0.0 0.0 0.0 0.0
0.0 0.0 0.0 0.0 0.0 0.0 0.0 0.0
0.0 0.0 0.0 0.0 0.0 0.0 0.0 0.0

tfl.pseudo_qconst26 i1 [1, 4, 1, 32] scale=2.2719457 zero_point=-128
00000000: 8080 8080 8080 8080 8080 8080 8080 8080
00000010: 8080 8080 8080 8080 8080 8080 8080 8080
00000020: 8080 8080 8080 8080 8080 8080 8080 8080
00000030: 8080 8080 8080 8080 8080 8080 8080 8080
00000040: 8080 8080 8080 8080 8080 8080 8080 8080
00000050: 8080 8080 8080 8080 8080 8080 8080 8080
00000060: 8080 8080 8080 8080 8080 8080 8080 8080
00000070: 8080 8080 8080 8080 8080 8080 8080 8080
0.0 0.0 0.0 0.0 0.0 0.0 0.0 0.0
0.0 0.0 0.0 0.0 0.0 0.0 0.0 0.0
0.0 0.0 0.0 0.0 0.0 0.0 0.0 0.0
0.0 0.0 0.0 0.0 0.0 0.0 0.0 0.0
0.0 0.0 0.0 0.0 0.0 0.0 0.0 0.0
0.0 0.0 0.0 0.0 0.0 0.0 0.0 0.0
0.0 0.0 0.0 0.0 0.0 0.0 0.0 0.0
0.0 0.0 0.0 0.0 0.0 0.0 0.0 0.0
0.0 0.0 0.0 0.0 0.0 0.0 0.0 0.0
0.0 0.0 0.0 0.0 0.0 0.0 0.0 0.0
0.0 0.0 0.0 0.0 0.0 0.0 0.0 0.0
0.0 0.0 0.0 0.0 0.0 0.0 0.0 0.0
0.0 0.0 0.0 0.0 0.0 0.0 0.0 0.0
0.0 0.0 0.0 0.0 0.0 0.0 0.0 0.0
0.0 0.0 0.0 0.0 0.0 0.0 0.0 0.0
0.0 0.0 0.0 0.0 0.0 0.0 0.0 0.0

tfl.pseudo_qconst27 i1 [1, 3, 1, 40] scale=0.101960786 zero_point=-128
00000000: 8080 8080 8080 8080 8080 8080 8080 8080
00000010: 8080 8080 8080 8080 8080 8080 8080 8080
00000020: 8080 8080 8080 8080 8080 8080 8080 8080
00000030: 8080 8080 8080 8080 8080 8080 8080 8080
00000040: 8080 8080 8080 8080 8080 8080 8080 8080
00000050: 8080 8080 8080 8080 8080 8080 8080 8080
00000060: 8080 8080 8080 8080 8080 8080 8080 8080
00000070: 8080 8080 8080 8080
0.0 0.0 0.0 0.0 0.0 0.0 0.0 0.0
0.0 0.0 0.0 0.0 0.0 0.0 0.0 0.0
0.0 0.0 0.0 0.0 0.0 0.0 0.0 0.0
0.0 0.0 0.0 0.0 0.0 0.0 0.0 0.0
0.0 0.0 0.0 0.0 0.0 0.0 0.0 0.0
0.0 0.0 0.0 0.0 0.0 0.0 0.0 0.0
0.0 0.0 0.0 0.0 0.0 0.0 0.0 0.0
0.0 0.0 0.0 0.0 0.0 0.0 0.0 0.0
0.0 0.0 0.0 0.0 0.0 0.0 0.0 0.0
0.0 0.0 0.0 0.0 0.0 0.0 0.0 0.0
0.0 0.0 0.0 0.0 0.0 0.0 0.0 0.0
0.0 0.0 0.0 0.0 0.0 0.0 0.0 0.0
0.0 0.0 0.0 0.0 0.0 0.0 0.0 0.0
0.0 0.0 0.0 0.0 0.0 0.0 0.0 0.0
0.0 0.0 0.0 0.0 0.0 0.0 0.0 0.0

tfl.pseudo_qconst28 i1 [1, 36, 1, 64] scale=0.021759883 zero_point=-128
00000000: 8080 8080 8080 8080 8080 8080 8080 8080
00000010: 8080 8080 8080 8080 8080 8080 8080 8080
00000020: 8080 8080 8080 8080 8080 8080 8080 8080
00000030: 8080 8080 8080 8080 8080 8080 8080 8080
00000040: 8080 8080 8080 8080 8080 8080 8080 8080
00000050: 8080 8080 8080 8080 8080 8080 8080 8080
00000060: 8080 8080 8080 8080 8080 8080 8080 8080
00000070: 8080 8080 8080 8080 8080 8080 8080 8080
00000080: 8080 8080 8080 8080 8080 8080 8080 8080
00000090: 8080 8080 8080 8080 8080 8080 8080 8080
000000a0: 8080 8080 8080 8080 8080 8080 8080 8080
000000b0: 8080 8080 8080 8080 8080 8080 8080 8080
000000c0: 8080 8080 8080 8080 8080 8080 8080 8080
000000d0: 8080 8080 8080 8080 8080 8080 8080 8080
000000e0: 8080 8080 8080 8080 8080 8080 8080 8080
000000f0: 8080 8080 8080 8080 8080 8080 8080 8080
0.0 0.0 0.0 0.0 0.0 0.0 0.0 0.0
0.0 0.0 0.0 0.0 0.0 0.0 0.0 0.0
0.0 0.0 0.0 0.0 0.0 0.0 0.0 0.0
0.0 0.0 0.0 0.0 0.0 0.0 0.0 0.0
0.0 0.0 0.0 0.0 0.0 0.0 0.0 0.0
0.0 0.0 0.0 0.0 0.0 0.0 0.0 0.0
0.0 0.0 0.0 0.0 0.0 0.0 0.0 0.0
0.0 0.0 0.0 0.0 0.0 0.0 0.0 0.0
0.0 0.0 0.0 0.0 0.0 0.0 0.0 0.0
0.0 0.0 0.0 0.0 0.0 0.0 0.0 0.0
0.0 0.0 0.0 0.0 0.0 0.0 0.0 0.0
0.0 0.0 0.0 0.0 0.0 0.0 0.0 0.0
0.0 0.0 0.0 0.0 0.0 0.0 0.0 0.0
0.0 0.0 0.0 0.0 0.0 0.0 0.0 0.0
0.0 0.0 0.0 0.0 0.0 0.0 0.0 0.0
0.0 0.0 0.0 0.0 0.0 0.0 0.0 0.0
0.0 0.0 0.0 0.0 0.0 0.0 0.0 0.0
0.0 0.0 0.0 0.0 0.0 0.0 0.0 0.0
0.0 0.0 0.0 0.0 0.0 0.0 0.0 0.0
0.0 0.0 0.0 0.0 0.0 0.0 0.0 0.0
0.0 0.0 0.0 0.0 0.0 0.0 0.0 0.0
0.0 0.0 0.0 0.0 0.0 0.0 0.0 0.0
0.0 0.0 0.0 0.0 0.0 0.0 0.0 0.0
0.0 0.0 0.0 0.0 0.0 0.0 0.0 0.0
0.0 0.0 0.0 0.0 0.0 0.0 0.0 0.0
0.0 0.0 0.0 0.0 0.0 0.0 0.0 0.0
0.0 0.0 0.0 0.0 0.0 0.0 0.0 0.0
0.0 0.0 0.0 0.0 0.0 0.0 0.0 0.0
0.0 0.0 0.0 0.0 0.0 0.0 0.0 0.0
0.0 0.0 0.0 0.0 0.0 0.0 0.0 0.0
0.0 0.0 0.0 0.0 0.0 0.0 0.0 0.0
0.0 0.0 0.0 0.0 0.0 0.0 0.0 0.0

tfl.pseudo_qconst29 i1 [1, 22, 1, 64] scale=0.052679498 zero_point=-128
00000000: 8080 8080 8080 8080 8080 8080 8080 8080
00000010: 8080 8080 8080 8080 8080 8080 8080 8080
00000020: 8080 8080 8080 8080 8080 8080 8080 8080
00000030: 8080 8080 8080 8080 8080 8080 8080 8080
00000040: 8080 8080 8080 8080 8080 8080 8080 8080
00000050: 8080 8080 8080 8080 8080 8080 8080 8080
00000060: 8080 8080 8080 8080 8080 8080 8080 8080
00000070: 8080 8080 8080 8080 8080 8080 8080 8080
00000080: 8080 8080 8080 8080 8080 8080 8080 8080
00000090: 8080 8080 8080 8080 8080 8080 8080 8080
000000a0: 8080 8080 8080 8080 8080 8080 8080 8080
000000b0: 8080 8080 8080 8080 8080 8080 8080 8080
000000c0: 8080 8080 8080 8080 8080 8080 8080 8080
000000d0: 8080 8080 8080 8080 8080 8080 8080 8080
000000e0: 8080 8080 8080 8080 8080 8080 8080 8080
000000f0: 8080 8080 8080 8080 8080 8080 8080 8080
0.0 0.0 0.0 0.0 0.0 0.0 0.0 0.0
0.0 0.0 0.0 0.0 0.0 0.0 0.0 0.0
0.0 0.0 0.0 0.0 0.0 0.0 0.0 0.0
0.0 0.0 0.0 0.0 0.0 0.0 0.0 0.0
0.0 0.0 0.0 0.0 0.0 0.0 0.0 0.0
0.0 0.0 0.0 0.0 0.0 0.0 0.0 0.0
0.0 0.0 0.0 0.0 0.0 0.0 0.0 0.0
0.0 0.0 0.0 0.0 0.0 0.0 0.0 0.0
0.0 0.0 0.0 0.0 0.0 0.0 0.0 0.0
0.0 0.0 0.0 0.0 0.0 0.0 0.0 0.0
0.0 0.0 0.0 0.0 0.0 0.0 0.0 0.0
0.0 0.0 0.0 0.0 0.0 0.0 0.0 0.0
0.0 0.0 0.0 0.0 0.0 0.0 0.0 0.0
0.0 0.0 0.0 0.0 0.0 0.0 0.0 0.0
0.0 0.0 0.0 0.0 0.0 0.0 0.0 0.0
0.0 0.0 0.0 0.0 0.0 0.0 0.0 0.0
0.0 0.0 0.0 0.0 0.0 0.0 0.0 0.0
0.0 0.0 0.0 0.0 0.0 0.0 0.0 0.0
0.0 0.0 0.0 0.0 0.0 0.0 0.0 0.0
0.0 0.0 0.0 0.0 0.0 0.0 0.0 0.0
0.0 0.0 0.0 0.0 0.0 0.0 0.0 0.0
0.0 0.0 0.0 0.0 0.0 0.0 0.0 0.0
0.0 0.0 0.0 0.0 0.0 0.0 0.0 0.0
0.0 0.0 0.0 0.0 0.0 0.0 0.0 0.0
0.0 0.0 0.0 0.0 0.0 0.0 0.0 0.0
0.0 0.0 0.0 0.0 0.0 0.0 0.0 0.0
0.0 0.0 0.0 0.0 0.0 0.0 0.0 0.0
0.0 0.0 0.0 0.0 0.0 0.0 0.0 0.0
0.0 0.0 0.0 0.0 0.0 0.0 0.0 0.0
0.0 0.0 0.0 0.0 0.0 0.0 0.0 0.0
0.0 0.0 0.0 0.0 0.0 0.0 0.0 0.0
0.0 0.0 0.0 0.0 0.0 0.0 0.0 0.0
