models/hey_kobold/hey_kobold.tflite (tflite, 63544 bytes, 18 tensors)

tfl.pseudo_qconst1 i1 [1, 2368] scale=0.0050217225 zero_point=0
000000 ef 19 da 21 e8 00 ee 0d ce e3 e6 df ea fc e6 1e
       -0.08536928 0.12554306 -0.19082546 0.16571684 -0.12052134 0.0 -0.090391 0.06528239 -0.25108612 -0.14562996 -0.13056478 -0.16571684 -0.110477895 -0.02008689 -0.13056478 0.15065168
000010 fa f8 0d fe 17 1f 37 fd b5 fc f5 0e 08 06 e4 97
       -0.030130334 -0.04017378 0.06528239 -0.010043445 0.115499616 0.1556734 0.27619475 -0.015065167 -0.3766292 -0.02008689 -0.055238947 0.07030412 0.04017378 0.030130334 -0.14060824 -0.52728087
000020 06 c5 ed da eb da fe dd c9 03 e3 f9 e2 ea 14 d8
       0.030130334 -0.29628164 -0.09541273 -0.19082546 -0.10545617 -0.19082546 -0.010043445 -0.17576028 -0.27619475 0.015065167 -0.14562996 -0.03515206 -0.15065168 -0.110477895 0.10043445 -0.2008689
000030 01 fb e4 04 db 01 e0 dc 13 08 f3 15 f9 fe f5 ff
       0.0050217225 -0.025108613 -0.14060824 0.02008689 -0.18580373 0.0050217225 -0.16069512 -0.180782 0.09541273 0.04017378 -0.06528239 0.10545617 -0.03515206 -0.010043445 -0.055238947 -0.0050217225
000040 00 1e e0 0e f1 15 f7 13 da f5 eb de ed fc f0 1c
       0.0 0.15065168 -0.16069512 0.07030412 -0.07532584 0.10545617 -0.0451955 0.09541273 -0.19082546 -0.055238947 -0.10545617 -0.17073856 -0.09541273 -0.02008689 -0.08034756 0.14060824
000050 08 fb 04 f4 07 16 26 02 c8 e6 05 15 02 03 f1 ab
       0.04017378 -0.025108613 0.02008689 -0.06026067 0.03515206 0.110477895 0.19082546 0.010043445 -0.28121647 -0.13056478 0.025108613 0.10545617 0.010043445 0.015065167 -0.07532584 -0.4268464
000060 09 d8 ea d9 f1 f0 fe e7 d4 f7 01 ee f7 f0 07 e9
       0.0451955 -0.2008689 -0.110477895 -0.19584718 -0.07532584 -0.08034756 -0.010043445 -0.12554306 -0.22095579 -0.0451955 0.0050217225 -0.090391 -0.0451955 -0.08034756 0.03515206 -0.115499616
000070 f3 fe f4 06 f6 f8 f9 e0 0f 06 ef 08 ff 01 03 02
       -0.06528239 -0.010043445 -0.06026067 0.030130334 -0.050217226 -0.04017378 -0.03515206 -0.16069512 0.07532584 0.030130334 -0.08536928 0.04017378 -0.0050217225 0.0050217225 0.015065167 0.010043445
000080 03 19 f1 0f fd 0b 05 00 e6 09 fb fd f4 fe f3 16
       0.015065167 0.12554306 -0.07532584 0.07532584 -0.015065167 0.055238947 0.025108613 0.0 -0.13056478 0.0451955 -0.025108613 -0.015065167 -0.06026067 -0.010043445 -0.06528239 0.110477895
000090 ff f7 ec f8 e8 0a 0c ff da e4 08 12 02 fc ff d1
       -0.0050217225 -0.0451955 -0.10043445 -0.04017378 -0.12052134 0.050217226 0.06026067 -0.0050217225 -0.19082546 -0.14060824 0.04017378 0.090391 0.010043445 -0.02008689 -0.0050217225 -0.23602095
0000a0 01 d5 f2 de fb e5 f8 d7 da ea f9 ee f5 de 03 f1
       0.0050217225 -0.21593407 -0.07030412 -0.17073856 -0.025108613 -0.13558652 -0.04017378 -0.20589063 -0.19082546 -0.110477895 -0.03515206 -0.090391 -0.055238947 -0.17073856 0.015065167 -0.07532584
0000b0 ef 04 eb fc 04 09 00 dd 17 0d fe 0a e6 0b 01 f5
       -0.08536928 0.02008689 -0.10545617 -0.02008689 0.02008689 0.0451955 0.0 -0.17576028 0.115499616 0.06528239 -0.010043445 0.050217226 -0.13056478 0.055238947 0.0050217225 -0.055238947
0000c0 f8 18 f5 fe f7 f4 15 eb ee f3 01 e7 0c 08 f4 1f
       -0.04017378 0.12052134 -0.055238947 -0.010043445 -0.0451955 -0.06026067 0.10545617 -0.10545617 -0.090391 -0.06528239 0.0050217225 -0.12554306 0.06026067 0.04017378 -0.06026067 0.1556734
0000d0 0a f3 e8 f8 f1 03 07 dd e3 d2 03 0c 0e fe fa f0
       0.050217226 -0.06528239 -0.12052134 -0.04017378 -0.07532584 0.015065167 0.03515206 -0.17576028 -0.14562996 -0.23099923 0.015065167 0.06026067 0.07030412 -0.010043445 -0.030130334 -0.08034756
0000e0 01 d0 f9 fc f5 e6 09 da e1 f8 ea ee f9 f5 ea ea
       0.0050217225 -0.24104267 -0.03515206 -0.02008689 -0.055238947 -0.13056478 0.0451955 -0.19082546 -0.1556734 -0.04017378 -0.110477895 -0.090391 -0.03515206 -0.055238947 -0.110477895 -0.110477895
0000f0 03 0a fb 04 18 06 fb ec 03 0d f2 f7 f2 11 02 00
       0.015065167 0.050217226 -0.025108613 0.02008689 0.12052134 0.030130334 -0.025108613 -0.10043445 0.015065167 0.06528239 -0.07030412 -0.0451955 -0.07030412 0.08536928 0.010043445 0.0

tfl.pseudo_qconst3 i1 [64, 1, 1, 64]
000000 38 fb 0a 10 03 06 ea f8 04 1a 3d c1 f7 13 0d 81
       56 -5 10 16 3 6 -22 -8 4 26 61 -63 -9 19 13 -127
000010 f1 17 0a ee f9 fa 03 d2 1e 2c f6 0f 22 28 e3 06
       -15 23 10 -18 -7 -6 3 -46 30 44 -10 15 34 40 -29 6
000020 f6 3e be d9 46 f0 c0 07 11 eb 1a f1 08 2a dd c3
       -10 62 -66 -39 70 -16 -64 7 17 -21 26 -15 8 42 -35 -61
000030 0c e9 09 e7 03 1b c3 3e 0f 16 d9 d7 0a 15 e6 dc
       12 -23 9 -25 3 27 -61 62 15 22 -39 -41 10 21 -26 -36
000040 0b eb 41 02 f1 3c 02 14 cb a3 48 e8 00 2f 1e 18
       11 -21 65 2 -15 60 2 20 -53 -93 72 -24 0 47 30 24
000050 3f 43 24 b8 fc 32 14 1c 46 05 db 59 18 0b 52 40
       63 67 36 -72 -4 50 20 28 70 5 -37 89 24 11 82 64
000060 d9 fb e9 c0 0f 9d 64 81 ec 01 ff 2c b5 09 af f1
       -39 -5 -23 -64 15 -99 100 -127 -20 1 -1 44 -75 9 -81 -15
000070 ea 30 06 2d 1f cc bc fd 07 b6 3e 01 a5 fd ea 29
       -22 48 6 45 31 -52 -68 -3 7 -74 62 1 -91 -3 -22 41
000080 06 e7 0d 23 e8 34 e9 e6 00 eb 63 1c 59 0d 1e c5
       6 -25 13 35 -24 52 -23 -26 0 -21 99 28 89 13 30 -59
000090 d7 4e 98 d1 d6 6c 2a 20 08 57 d0 bf 5a 1a 10 d6
       -41 78 -104 -47 -42 108 42 32 8 87 -48 -65 90 26 16 -42
0000a0 c9 7f d6 4a 3d a7 bb 1c 15 25 28 d4 31 08 c8 04
       -55 127 -42 74 61 -89 -69 28 21 37 40 -44 49 8 -56 4
0000b0 0f 1e 3a cb cb e1 08 54 7d da 08 2a 11 f7 0b 3f
       15 30 58 -53 -53 -31 8 84 125 -38 8 42 17 -9 11 63
0000c0 04 d4 2e 50 e0 22 c4 fa f8 fe c7 e9 0e 34 10 f7
       4 -44 46 80 -32 34 -60 -6 -8 -2 -57 -23 14 52 16 -9
0000d0 0c ef 2e dd ff f7 09 21 15 f1 e6 42 00 cf 3c fe
       12 -17 46 -35 -1 -9 9 33 21 -15 -26 66 0 -49 60 -2
0000e0 0b 06 a1 d5 58 81 e6 e0 c7 01 1a e9 eb 78 10 c0
       11 6 -95 -43 88 -127 -26 -32 -57 1 26 -23 -21 120 16 -64
0000f0 10 03 04 01 24 cd b8 55 a9 d6 d6 2c 0a 5e 0b 1d
       16 3 4 1 36 -51 -72 85 -87 -42 -42 44 10 94 11 29

tfl.pseudo_qconst5 i1 [1, 23, 1, 64]
000000 81 13 15 b5 a0 24 7f e3 81 29 2d 34 1f 68 7f 3a
       -127 19 21 -75 -96 36 127 -29 -127 41 45 52 31 104 127 58
000010 7c 81 0e fd a4 1f f6 17 ea ea 0c 7f bd d9 87 a0
       124 -127 14 -3 -92 31 -10 23 -22 -22 12 127 -67 -39 -121 -96
000020 7f 81 1e ec 92 5a 7f 29 d5 85 7f 16 45 81 b6 7f
       127 -127 30 -20 -110 90 127 41 -43 -123 127 22 69 -127 -74 127
000030 9b e0 81 84 a6 61 9a cb 7f 36 da f1 0b a6 ea c2
       -101 -32 -127 -124 -90 97 -102 -53 127 54 -38 -15 11 -90 -22 -62
000040 a7 63 20 ba d8 10 78 f3 cb 1d 45 25 2f 38 5c 55
       -89 99 32 -70 -40 16 120 -13 -53 29 69 37 47 56 92 85
000050 64 99 ea 08 aa 1b 09 e7 29 f3 f6 76 c1 cf 89 81
       100 -103 -22 8 -86 27 9 -25 41 -13 -10 118 -63 -49 -119 -127
000060 72 b3 19 e1 ab 36 72 0d d7 81 29 21 7f 94 81 66
       114 -77 25 -31 -85 54 114 13 -41 -127 41 33 127 -108 -127 102
000070 9e cf 8c 81 d4 33 81 bb 68 38 c1 d9 f0 9a bb a6
       -98 -49 -116 -127 -44 51 -127 -69 104 56 -63 -39 -16 -102 -69 -90
000080 a6 77 19 bd b6 11 74 d1 ad 46 74 0a 56 4b 5a 74
       -90 119 25 -67 -74 17 116 -47 -83 70 116 10 86 75 90 116
000090 7f b5 e8 dc bd 09 0e d7 13 cb f3 75 ba d0 af 9b
       127 -75 -24 -36 -67 9 14 -41 19 -53 -13 117 -70 -48 -81 -101
0000a0 58 a8 2c e6 e0 23 61 ff f0 a1 2d 15 6a 9c 9e 23
       88 -88 44 -26 -32 35 97 -1 -16 -95 45 21 106 -100 -98 35
0000b0 97 d8 a3 93 20 3b 83 a1 60 22 b9 d8 ef 8e b3 81
       -105 -40 -93 -109 32 59 -125 -95 96 34 -71 -40 -17 -114 -77 -127
0000c0 1a 5d 2b dc c4 19 6d e6 b9 2e 7d 09 7f 4c 24 7f
       26 93 43 -36 -60 25 109 -26 -71 46 125 9 127 76 36 127
0000d0 41 b2 f8 14 e8 26 0a d2 47 c8 05 4e b2 d8 da 9e
       65 -78 -8 20 -24 38 10 -46 71 -56 5 78 -78 -40 -38 -98
0000e0 47 cb 0d d9 fb fd 4f f7 f9 dc 28 16 32 ca b4 38
       71 -53 13 -39 -5 -3 79 -9 -7 -36 40 22 50 -54 -76 56
0000f0 ad ef d4 c1 19 1a df 9e 6e 34 8b a9 01 c4 a6 a1
       -83 -17 -44 -63 25 26 -33 -98 110 52 -117 -87 1 -60 -90 -95

tfl.pseudo_qconst7 i1 [64, 1, 1, 64]
000000 32 12 c0 54 12 08 23 f2 1d 07 01 09 47 f4 e8 c6
       50 18 -64 84 18 8 35 -14 29 7 1 9 71 -12 -24 -58
000010 14 ca 36 ef a9 e6 f6 f4 1b 02 f2 cc 23 e5 f7 a8
       20 -54 54 -17 -87 -26 -10 -12 27 2 -14 -52 35 -27 -9 -88
000020 2a 6f 24 fa 36 f7 4e 3a ea 36 ff d8 bb e1 2c e4
       42 111 36 -6 54 -9 78 58 -22 54 -1 -40 -69 -31 44 -28
000030 d1 ff 4d 32 4d f4 c1 f9 e9 1c 28 81 f9 fb fe 31
       -47 -1 77 50 77 -12 -63 -7 -23 28 40 -127 -7 -5 -2 49
000040 e8 ea 12 dc 96 c2 25 fa 36 f8 04 32 69 fc 19 c7
       -24 -22 18 -36 -106 -62 37 -6 54 -8 4 50 105 -4 25 -57
000050 b8 d0 2f 06 33 60 27 01 b6 c8 1f 15 ee 30 c6 ab
       -72 -48 47 6 51 96 39 1 -74 -56 31 21 -18 48 -58 -85
000060 15 eb e4 2b cb ec de 0d ce 1e 7f 5c e3 fa a6 dd
       21 -21 -28 43 -53 -20 -34 13 -50 30 127 92 -29 -6 -90 -35
000070 52 ec 32 4b 3c 62 33 aa 3e f2 3a 84 98 2f 53 12
       82 -20 50 75 60 98 51 -86 62 -14 58 -124 -104 47 83 18
000080 f3 f9 23 1c fc c0 e6 30 dd f0 eb 15 e6 0a 0d 3c
       -13 -7 35 28 -4 -64 -26 48 -35 -16 -21 21 -26 10 13 60
000090 30 38 1d 1c 24 2a c9 25 47 19 27 33 07 31 7f 29
       48 56 29 28 36 42 -55 37 71 25 39 51 7 49 127 41
0000a0 d7 f5 e4 b5 07 2f d7 01 f5 c5 e8 db 15 e3 1f 1a
       -41 -11 -28 -75 7 47 -41 1 -11 -59 -24 -37 21 -29 31 26
0000b0 1c e7 33 fd e4 37 d5 2d fb 1a 1d 13 1e e0 ae 24
       28 -25 51 -3 -28 55 -43 45 -5 26 29 19 30 -32 -82 36
0000c0 e8 e9 e8 c2 f3 39 b0 cd d8 39 21 dd d3 00 1c cc
       -24 -23 -24 -62 -13 57 -80 -51 -40 57 33 -35 -45 0 28 -52
0000d0 1c d6 e1 43 da 2c 06 0a 05 07 1d d5 4a 2f e8 13
       28 -42 -31 67 -38 44 6 10 5 7 29 -43 74 47 -24 19
0000e0 fc 01 f1 f3 2a e2 81 d8 bc 4e e6 e9 46 19 f6 75
       -4 1 -15 -13 42 -30 -127 -40 -68 78 -26 -23 70 25 -10 117
0000f0 21 29 ef 06 1d 0e 46 c1 0d d0 48 4d 15 45 fe d0
       33 41 -17 6 29 14 70 -63 13 -48 72 77 21 69 -2 -48

tfl.pseudo_qconst9 i1 [1, 15, 1, 32]
000000 fd b1 2b 4f 21 e6 7f 81 7f 04 be df 19 2f a4 13
       -3 -79 43 79 33 -26 127 -127 127 4 -66 -33 25 47 -92 19
000010 24 df 3d 7f 1e 2b 26 7f 37 50 ae 4f 8b f2 24 2c
       36 -33 61 127 30 43 38 127 55 80 -82 79 -117 -14 36 44
000020 96 fe 35 54 33 09 52 8e 51 ec b4 e6 0b 7f ea 42
       -106 -2 53 84 51 9 82 -114 81 -20 -76 -26 11 127 -22 66
000030 50 a9 39 3a ca 03 da 4e 15 4d b3 7f 89 c0 08 e5
       80 -87 57 58 -54 3 -38 78 21 77 -77 127 -119 -64 8 -27
000040 b8 de f4 6e f5 46 4f 94 f4 f5 ad 12 20 d5 e2 40
       -72 -34 -12 110 -11 70 79 -108 -12 -11 -83 18 32 -43 -30 64
000050 e2 bf 0a 47 d1 a9 bb 66 24 1b e7 74 b1 81 27 f2
       -30 -65 10 71 -47 -87 -69 102 36 27 -25 116 -79 -127 39 -14
000060 92 16 59 13 18 44 1f 92 14 f3 ba f8 39 03 00 6f
       -110 22 89 19 24 68 31 -110 20 -13 -70 -8 57 3 0 111
000070 e1 97 fb 50 c5 d9 bc 45 09 1c ea 5e 81 aa 0e 0d
       -31 -105 -5 80 -59 -39 -68 69 9 28 -22 94 -127 -86 14 13
000080 d1 28 6d 16 26 46 0f 93 54 27 f4 0a 3d 1d e0 7c
       -47 40 109 22 38 70 15 -109 84 39 -12 10 61 29 -32 124
000090 d3 1a fa 19 d2 81 f6 2a dd 51 0b 45 d0 b0 04 ea
       -45 26 -6 25 -46 -127 -10 42 -35 81 11 69 -48 -80 4 -22
0000a0 1b e3 50 18 fe 45 03 b0 e6 fd d0 d7 58 03 a8 7f
       27 -29 80 24 -2 69 3 -80 -26 -3 -48 -41 88 3 -88 127
0000b0 c9 f9 25 01 ba bd 10 3f e9 28 fa 6b a9 a2 f2 dd
       -55 -7 37 1 -70 -67 16 63 -23 40 -6 107 -87 -94 -14 -35
0000c0 f3 2f 14 3f 03 01 ce c6 fb 06 ff d9 7d 33 8f 47
       -13 47 20 63 3 1 -50 -58 -5 6 -1 -39 125 51 -113 71
0000d0 e4 81 15 33 e1 c6 05 2b dd 30 fd 57 b3 f9 b8 eb
       -28 -127 21 51 -31 -58 5 43 -35 48 -3 87 -77 -7 -72 -21
0000e0 10 23 2e 54 f0 f6 dc cb 30 e9 12 dc 6a 50 a5 3b
       16 35 46 84 -16 -10 -36 -53 48 -23 18 -36 106 80 -91 59
0000f0 18 92 dc 27 a3 e2 30 f1 ff 33 ee 37 b7 33 b7 05
       24 -110 -36 39 -93 -30 48 -15 -1 51 -18 55 -73 51 -73 5

tfl.pseudo_qconst11 i1 [1, 9, 1, 32]
000000 27 35 a0 9f 2a 81 22 05 34 43 a0 7f 84 44 07 20
       39 53 -96 -97 42 -127 34 5 52 67 -96 127 -124 68 7 32
000010 f4 fe f2 c9 55 81 dd ef 7f c7 e9 7f da e0 fe 11
       -12 -2 -14 -55 85 -127 -35 -17 127 -57 -23 127 -38 -32 -2 17
000020 02 ff 81 c4 0a 94 30 6b 4e 17 dd f8 c1 7c f5 40
       2 -1 -127 -60 10 -108 48 107 78 23 -35 -8 -63 124 -11 64
000030 eb d2 eb 14 7c 9d 9c 26 25 fa 1b 3e 0a c7 0b 6b
       -21 -46 -21 20 124 -99 -100 38 37 -6 27 62 10 -57 11 107
000040 02 45 05 b8 fc ec ce 2c 1c 35 e6 fe a6 ec 16 eb
       2 69 5 -72 -4 -20 -50 44 28 53 -26 -2 -90 -20 22 -21
000050 10 01 ed e5 74 cc 51 e1 5e 2c f0 55 16 81 10 7f
       16 1 -19 -27 116 -52 81 -31 94 44 -16 85 22 -127 16 127
000060 3b 25 5f a4 ee d6 d6 2c 53 7f ed c1 c2 7f f3 dc
       59 37 95 -92 -18 -42 -42 44 83 127 -19 -63 -62 127 -13 -36
000070 e5 23 f3 11 55 8f 7f 38 1f 63 1a 3d f9 9f f8 29
       -27 35 -13 17 85 -113 127 56 31 99 26 61 -7 -97 -8 41
000080 38 0d 46 81 a7 06 d2 dc 7f 45 dd b8 57 40 c2 dd
       56 13 70 -127 -89 6 -46 -36 127 69 -35 -72 87 64 -62 -35
000090 2b 45 c6 1b 65 d2 4a fc bb 53 eb 20 6e e6 13 44
       43 69 -58 27 101 -46 74 -4 -69 83 -21 32 110 -26 19 68
0000a0 5a 3c 77 ee 81 7e e0 b2 47 25 81 b1 2b b4 d2 81
       90 60 119 -18 -127 126 -32 -78 71 37 -127 -79 43 -76 -46 -127
0000b0 1c 1a cf 23 44 b6 c5 38 b8 e7 14 f9 7f a0 37 d6
       28 26 -49 35 68 -74 -59 56 -72 -25 20 -7 127 -96 55 -42
0000c0 1e 7f 57 f7 69 07 a9 8f 1e 2a db a6 25 37 31 92
       30 127 87 -9 105 7 -87 -113 30 42 -37 -90 37 55 49 -110
0000d0 12 7f c0 67 30 ec ea 7f aa c1 21 13 6e af 43 e1
       18 127 -64 103 48 -20 -22 127 -86 -63 33 19 110 -81 67 -31
0000e0 6b 26 35 5e f4 09 d1 90 46 e5 ea c1 da a4 76 9c
       107 38 53 94 -12 9 -47 -112 70 -27 -22 -63 -38 -92 118 -100
0000f0 15 5a 81 65 81 c7 1d 7b d9 ed 51 b7 6a 86 54 c5
       21 90 -127 101 -127 -57 29 123 -39 -19 81 -73 106 -122 84 -59

tfl.pseudo_qconst13 i1 [64, 1, 1, 64]
000000 10 c7 e1 29 0b e4 5f b0 f9 c4 c1 4b 14 fb 32 c7
       16 -57 -31 41 11 -28 95 -80 -7 -60 -63 75 20 -5 50 -57
000010 0b 17 17 ed 26 18 e7 eb fa 0c e6 81 07 16 cd 05
       11 23 23 -19 38 24 -25 -21 -6 12 -26 -127 7 22 -51 5
000020 1d 0a f2 0e 06 c5 97 e3 ad 34 c9 b0 0a e1 e5 1a
       29 10 -14 14 6 -59 -105 -29 -83 52 -55 -80 10 -31 -27 26
000030 2a 09 bd 2a 07 c1 1b d1 e8 01 bf e1 00 ce 0e cf
       42 9 -67 42 7 -63 27 -47 -24 1 -65 -31 0 -50 14 -49
000040 2d 35 14 0b 3a e4 fe f6 4a cb d8 1c 95 bf 12 cc
       45 53 20 11 58 -28 -2 -10 74 -53 -40 28 -107 -65 18 -52
000050 bb 05 b4 eb 13 09 f2 21 fe 34 c3 ec 41 23 17 e9
       -69 5 -76 -21 19 9 -14 33 -2 52 -61 -20 65 35 23 -23
000060 09 48 e2 e6 b2 e9 fb f6 d8 37 7f cc ff ec cf 1f
       9 72 -30 -26 -78 -23 -5 -10 -40 55 127 -52 -1 -20 -49 31
000070 eb f8 20 b5 0a f9 1b 38 0e 2f a1 1f d5 03 cc f4
       -21 -8 32 -75 10 -7 27 56 14 47 -95 31 -43 3 -52 -12
000080 fc d8 1c 05 f4 00 dc 87 d5 37 fc e5 f8 03 c9 18
       -4 -40 28 5 -12 0 -36 -121 -43 55 -4 -27 -8 3 -55 24
000090 cb e8 d8 08 e6 fe 0b e1 58 29 36 06 1d 3d fc f5
       -53 -24 -40 8 -26 -2 11 -31 88 41 54 6 29 61 -4 -11
0000a0 fb f0 2c 09 c4 c8 ee fa dd 12 7f ff df 28 df 03
       -5 -16 44 9 -60 -56 -18 -6 -35 18 127 -1 -33 40 -33 3
0000b0 06 08 09 d4 f3 dd 20 0f f5 e2 20 4b f0 05 2d 3b
       6 8 9 -44 -13 -35 32 15 -11 -30 32 75 -16 5 45 59
0000c0 22 f2 cc c6 ea 18 d4 fa 18 16 16 1a 8d da 37 fe
       34 -14 -52 -58 -22 24 -44 -6 24 22 22 26 -115 -38 55 -2
0000d0 2e 0d de 82 04 cb 43 ce c5 df 1f f7 14 1c 87 19
       46 13 -34 -126 4 -53 67 -50 -59 -33 31 -9 20 28 -121 25
0000e0 0d 2d 05 7b a2 cd f5 eb e8 10 06 26 0b 49 fa f1
       13 45 5 123 -94 -51 -11 -21 -24 16 6 38 11 73 -6 -15
0000f0 be 17 81 1c fc a6 36 c4 cc 0f d6 a3 1f c8 02 a3
       -66 23 -127 28 -4 -90 54 -60 -52 15 -42 -93 31 -56 2 -93

tfl.pseudo_qconst15 i1 [1, 11, 1, 32]
000000 81 50 06 7d d3 7f 13 5f 81 46 28 cc c1 7f f8 03
       -127 80 6 125 -45 127 19 95 -127 70 40 -52 -63 127 -8 3
000010 c3 18 82 ac 54 02 45 07 b1 d8 5f af f3 49 fe 59
       -61 24 -126 -84 84 2 69 7 -79 -40 95 -81 -13 73 -2 89
000020 8c 12 d9 7f e3 64 2c 7e a6 7f 47 ad b8 41 ea 1d
       -116 18 -39 127 -29 100 44 126 -90 127 71 -83 -72 65 -22 29
000030 bd 0f e1 9a 4a f3 7a 15 ef 3b e7 b2 fa 7f 61 36
       -67 15 -31 -102 74 -13 122 21 -17 59 -25 -78 -6 127 97 54
000040 d1 06 7c 4c d1 f0 12 4f a5 5a 1e 81 e9 47 22 fa
       -47 6 124 76 -47 -16 18 79 -91 90 30 -127 -23 71 34 -6
000050 e2 14 ba e0 04 f6 4e 07 b5 35 2f a0 30 75 27 56
       -30 20 -70 -32 4 -10 78 7 -75 53 47 -96 48 117 39 86
000060 b3 08 ff d1 04 ec 17 4b d9 0e 29 b8 59 19 00 0b
       -77 8 -1 -47 4 -20 23 75 -39 14 41 -72 89 25 0 11
000070 22 1f 26 ef db c0 2a f4 1e fb 46 a4 5a f8 7f 7f
       34 31 38 -17 -37 -64 42 -12 30 -5 70 -92 90 -8 127 127
000080 de 0c 81 98 08 08 21 29 0e 31 49 b6 23 c7 1f ee
       -34 12 -127 -104 8 8 33 41 14 49 73 -74 35 -57 31 -18
000090 1f 56 04 05 03 c2 62 d6 a7 e6 dc ab 57 1c 4e 64
       31 86 4 5 3 -62 98 -42 -89 -26 -36 -85 87 28 78 100
0000a0 fb d9 34 aa f8 c2 12 11 46 cc 16 de 48 ce 07 1e
       -5 -39 52 -86 -8 -62 18 17 70 -52 22 -34 72 -50 7 30
0000b0 0e 44 fd 50 32 2b e6 e5 b3 37 bb f4 fa d0 fb 55
       14 68 -3 80 50 43 -26 -27 -77 55 -69 -12 -6 -48 -5 85
0000c0 e8 d3 2d b3 1e f1 0d e9 5f 18 f6 48 7f b9 fd 5b
       -24 -45 45 -77 30 -15 13 -23 95 24 -10 72 127 -71 -3 91
0000d0 c5 28 51 33 49 14 cd be 24 7f f4 f0 ff 20 46 0d
       -59 40 81 51 73 20 -51 -66 36 127 -12 -16 -1 32 70 13
0000e0 de b5 9c c4 10 f7 d3 d5 39 fa fa 27 55 ea 49 53
       -34 -75 -100 -60 16 -9 -45 -43 57 -6 -6 39 85 -22 73 83
0000f0 cd 07 47 5b ff 15 8f df e6 62 81 2f a9 ab 31 c9
       -51 7 71 91 -1 21 -113 -33 -26 98 -127 47 -87 -85 49 -55

tfl.pseudo_qconst17 i1 [1, 7, 1, 32]
000000 1b 81 81 c1 45 2d d8 d1 d4 b2 e3 72 2a d2 7f 45
       27 -127 -127 -63 69 45 -40 -47 -44 -78 -29 114 42 -46 127 69
000010 b0 17 5f a1 91 2c eb 7f 7f c3 3c e8 2a 9a 5d 66
       -80 23 95 -95 -111 44 -21 127 127 -61 60 -24 42 -102 93 102
000020 ff ce 85 b2 0c 22 df e6 81 85 d7 04 f8 be 32 64
       -1 -50 -123 -78 12 34 -33 -26 -127 -123 -41 4 -8 -66 50 100
000030 06 d7 0a f1 3f 7f cc 7f 09 81 bb bf 24 81 0d 1f
       6 -41 10 -15 63 127 -52 127 9 -127 -69 -65 36 -127 13 31
000040 24 0e ed f2 7f 29 ef 56 a5 97 01 7f f9 f2 27 66
       36 14 -19 -14 127 41 -17 86 -91 -105 1 127 -7 -14 39 102
000050 42 d1 d2 5c 4f 55 c8 02 d3 86 b7 05 52 fc db ce
       66 -47 -46 92 79 85 -56 2 -45 -122 -73 5 82 -4 -37 -50
000060 08 74 e5 ec fd e2 e0 66 b3 ce 40 37 e7 2e 77 61
       8 116 -27 -20 -3 -30 -32 102 -77 -50 64 55 -25 46 119 97
000070 33 81 ed 7f 2d 28 e7 21 c1 0b 27 25 57 d1 cf 95
       51 -127 -19 127 45 40 -25 33 -63 11 39 37 87 -47 -49 -107
000080 b1 1f ff da 93 1a 14 64 bf f2 7f fc 3c 60 08 05
       -79 31 -1 -38 -109 26 20 100 -65 -14 127 -4 60 96 8 5
000090 2e cc 7a 1f d0 25 e9 1a 97 ce a5 5a fb 99 e6 81
       46 -52 122 31 -48 37 -23 26 -105 -50 -91 90 -5 -103 -26 -127
0000a0 02 51 ae 3e c3 41 55 0e 83 81 19 1d 6b 77 fc 92
       2 81 -82 62 -61 65 85 14 -125 -127 25 29 107 119 -4 -110
0000b0 41 38 7f ed 81 3c bd 55 df c8 81 5d 93 f8 c9 98
       65 56 127 -19 -127 60 -67 85 -33 -56 -127 93 -109 -8 -55 -104
0000c0 81 e2 34 7f 53 7f 7f 81 ce 91 14 a9 7f 7f c8 81
       -127 -30 52 127 83 127 127 -127 -50 -111 20 -87 127 127 -56 -127
0000d0 7f 51 68 14 07 4e 81 5b 60 e4 ed 7f 81 fd 81 dd
       127 81 104 20 7 78 -127 91 96 -28 -19 127 -127 -3 -127 -35

tfl.pseudo_qconst19 i1 [64, 1, 1, 32]
000000 06 ff da d7 7f c9 e0 fc 03 2a 44 18 4d f4 63 f3
       6 -1 -38 -41 127 -55 -32 -4 3 42 68 24 77 -12 99 -13
000010 22 fd c6 42 17 cc 31 f0 18 11 04 29 fa e3 e6 e4
       34 -3 -58 66 23 -52 49 -16 24 17 4 41 -6 -29 -26 -28
000020 27 44 d2 a5 1d 00 81 73 e2 f3 fd 30 ec c7 e8 eb
       39 68 -46 -91 29 0 -127 115 -30 -13 -3 48 -20 -57 -24 -21
000030 d1 33 13 64 65 15 b8 f2 2a 24 00 99 c3 5b 90 25
       -47 51 19 100 101 21 -72 -14 42 36 0 -103 -61 91 -112 37
000040 d7 c2 01 f1 fb f9 eb 16 5c 28 f4 f0 0b f7 10 b1
       -41 -62 1 -15 -5 -7 -21 22 92 40 -12 -16 11 -9 16 -79
000050 fe d6 d8 b3 81 26 e2 f3 f7 cd de d4 34 f4 05 e4
       -2 -42 -40 -77 -127 38 -30 -13 -9 -51 -34 -44 52 -12 5 -28
000060 f6 58 29 07 f3 e7 c2 da 5e 4a 4c 68 a1 81 c6 21
       -10 88 41 7 -13 -25 -62 -38 94 74 76 104 -95 -127 -58 33
000070 cb df 2d f5 d3 42 0a 06 2c f8 49 11 57 47 0d e6
       -53 -33 45 -11 -45 66 10 6 44 -8 73 17 87 71 13 -26
000080 81 25 3a c7 d6 fa db 3c d8 e5 0e fb ff fb d7 e5
       -127 37 58 -57 -42 -6 -37 60 -40 -27 14 -5 -1 -5 -41 -27
000090 5b 28 d4 0d f4 94 13 f4 1c f6 d3 37 06 dd d4 62
       91 40 -44 13 -12 -108 19 -12 28 -10 -45 55 6 -35 -44 98
0000a0 11 1c 0c fd 6e b7 10 fc 13 d2 db 21 04 39 1b d2
       17 28 12 -3 110 -73 16 -4 19 -46 -37 33 4 57 27 -46
0000b0 08 1c ff 09 4c 11 0b f2 16 a3 00 d7 48 10 81 df
       8 28 -1 9 76 17 11 -14 22 -93 0 -41 72 16 -127 -33
0000c0 f2 c7 4c 57 0c 00 14 2d c7 1f bd 02 18 22 fb 0e
       -14 -57 76 87 12 0 20 45 -57 31 -67 2 24 34 -5 14
0000d0 f8 14 1f f3 04 57 7f 0e e3 ba 10 2e 0d 4b 3f d7
       -8 20 31 -13 4 87 127 14 -29 -70 16 46 13 75 63 -41
0000e0 2e 03 e8 11 f7 2e e5 08 05 81 fb 0b d1 05 12 d8
       46 3 -24 17 -9 46 -27 8 5 -127 -5 11 -47 5 18 -40
0000f0 f2 21 fa fc 0e 29 d4 0b 07 38 f1 1c 31 d3 07 0f
       -14 33 -6 -4 14 41 -44 11 7 56 -15 28 49 -45 7 15

tfl.pseudo_qconst21 i1 [1, 5, 1, 32]
000000 81 a4 cd 81 7f 9d d4 91 18 06 4f 15 47 d3 e9 b6
       -127 -92 -51 -127 127 -99 -44 -111 24 6 79 21 71 -45 -23 -74
000010 2e d8 08 a8 81 2c d6 6c d2 06 53 81 bf 81 ce 23
       46 -40 8 -88 -127 44 -42 108 -46 6 83 -127 -65 -127 -50 35
000020 31 06 63 8d 72 d7 05 81 7f b0 2c f9 a1 81 5f 3d
       49 6 99 -115 114 -41 5 -127 127 -80 44 -7 -95 -127 95 61
000030 4c db 01 95 d6 f5 bc b6 d0 b3 11 a6 34 f0 ac fd
       76 -37 1 -107 -42 -11 -68 -74 -48 -77 17 -90 52 -16 -84 -3
000040 5b d8 7f f2 ff 36 9a 18 3d 9d 05 81 97 82 07 05
       91 -40 127 -14 -1 54 -102 24 61 -99 5 -127 -105 -126 7 5
000050 11 81 11 c4 7a 15 a8 52 81 ca f7 43 4b 51 c4 6f
       17 -127 17 -60 122 21 -88 82 -127 -54 -9 67 75 81 -60 111
000060 de 08 b6 bf 06 7f 8f 42 56 07 7f fc 4d 1c 7f 81
       -34 8 -74 -65 6 127 -113 66 86 7 127 -4 77 28 127 -127
000070 8f ae 15 9c 56 b2 73 6c e4 7f ad ce 38 3b 81 7f
       -113 -82 21 -100 86 -78 115 108 -28 127 -83 -50 56 59 -127 127
000080 d7 7f a1 a2 cc 42 81 fc 21 7f 29 c7 7f f9 26 c1
       -41 127 -95 -94 -52 66 -127 -4 33 127 41 -57 127 -7 38 -63
000090 7f aa 81 81 f9 81 81 7f 10 1e 81 9b 7f 4b 9f 23
       127 -86 -127 -127 -7 -127 -127 127 16 30 -127 -101 127 75 -97 35

tfl.pseudo_qconst23 i1 [32, 5, 1, 40]
000000 c1 f1 14 f7 f4 13 19 35 03 ff 19 f5 f2 f7 e5 0f
       -63 -15 20 -9 -12 19 25 53 3 -1 25 -11 -14 -9 -27 15
000010 ff 13 17 24 c2 da e9 07 18 27 fd 02 18 08 e7 05
       -1 19 23 36 -62 -38 -23 7 24 39 -3 2 24 8 -25 5
000020 d0 fa e8 13 e1 f9 d5 22 cd 0e eb 17 06 09 21 20
       -48 -6 -24 19 -31 -7 -43 34 -51 14 -21 23 6 9 33 32
000030 eb f5 1c d6 05 fb 09 17 fa 0a 1c 24 d6 dd e6 f0
       -21 -11 28 -42 5 -5 9 23 -6 10 28 36 -42 -35 -26 -16
000040 32 47 0d 1c 1c eb f1 0a 0d 1d 04 28 fe 41 1a 71
       50 71 13 28 28 -21 -15 10 13 29 4 40 -2 65 26 113
000050 f5 f8 ff 2d 02 32 30 16 0a 07 13 e8 e7 f4 ed f8
       -11 -8 -1 45 2 50 48 22 10 7 19 -24 -25 -12 -19 -8
000060 02 16 f8 f1 ad f5 d2 ff 18 35 11 05 1c 19 25 2c
       2 22 -8 -15 -83 -11 -46 -1 24 53 17 5 28 25 37 44
000070 03 20 0e 1c 27 2f 15 7f 08 04 d7 04 30 4d 08 1e
       3 32 14 28 39 47 21 127 8 4 -41 4 48 77 8 30
000080 f4 dd e5 f2 ec 04 0c 1a 04 f0 f3 df cc db df d3
       -12 -35 -27 -14 -20 4 12 26 4 -16 -13 -33 -52 -37 -33 -45
000090 1c 0e 16 f1 eb e6 f4 fb 03 2d 29 28 22 29 32 7a
       28 14 22 -15 -21 -26 -12 -5 3 45 41 40 34 41 50 122
0000a0 ec e2 d5 e9 fb 1f 0f 0f f0 e3 ed d9 e5 05 0d 15
       -20 -30 -43 -23 -5 31 15 15 -16 -29 -19 -39 -27 5 13 21
0000b0 0e 07 0a c8 b7 d6 ec e9 fc 19 06 e3 e4 d0 00 e0
       14 7 10 -56 -73 -42 -20 -23 -4 25 6 -29 -28 -48 0 -32
0000c0 d6 f3 06 17 0c 2d 12 39 f7 18 4a 38 21 1b 25 11
       -42 -13 6 23 12 45 18 57 -9 24 74 56 33 27 37 17
0000d0 3d f3 1b dc 12 e3 1a f4 e6 eb ec e0 eb f4 11 2d
       61 -13 27 -36 18 -29 26 -12 -26 -21 -20 -32 -21 -12 17 45
0000e0 2a 70 1b 26 2a 07 1b 28 2e 3d 3c 2a 42 4d 5a 50
       42 112 27 38 42 7 27 40 46 61 60 42 66 77 90 80
0000f0 2f 1e 56 18 ff 0f 10 14 0f d4 37 f9 2c 01 10 04
       47 30 86 24 -1 15 16 20 15 -44 55 -7 44 1 16 4

tfl.pseudo_qconst24 i1 [1, 14, 1, 64] scale=0.051945552 zero_point=-128
000000 80 80 80 80 80 80 80 80 80 80 80 80 80 80 80 80
       0.0 0.0 0.0 0.0 0.0 0.0 0.0 0.0 0.0 0.0 0.0 0.0 0.0 0.0 0.0 0.0
000010 80 80 80 80 80 80 80 80 80 80 80 80 80 80 80 80
       0.0 0.0 0.0 0.0 0.0 0.0 0.0 0.0 0.0 0.0 0.0 0.0 0.0 0.0 0.0 0.0
000020 80 80 80 80 80 80 80 80 80 80 80 80 80 80 80 80
       0.0 0.0 0.0 0.0 0.0 0.0 0.0 0.0 0.0 0.0 0.0 0.0 0.0 0.0 0.0 0.0
000030 80 80 80 80 80 80 80 80 80 80 80 80 80 80 80 80
       0.0 0.0 0.0 0.0 0.0 0.0 0.0 0.0 0.0 0.0 0.0 0.0 0.0 0.0 0.0 0.0
000040 80 80 80 80 80 80 80 80 80 80 80 80 80 80 80 80
       0.0 0.0 0.0 0.0 0.0 0.0 0.0 0.0 0.0 0.0 0.0 0.0 0.0 0.0 0.0 0.0
000050 80 80 80 80 80 80 80 80 80 80 80 80 80 80 80 80
       0.0 0.0 0.0 0.0 0.0 0.0 0.0 0.0 0.0 0.0 0.0 0.0 0.0 0.0 0.0 0.0
000060 80 80 80 80 80 80 80 80 80 80 80 80 80 80 80 80
       0.0 0.0 0.0 0.0 0.0 0.0 0.0 0.0 0.0 0.0 0.0 0.0 0.0 0.0 0.0 0.0
000070 80 80 80 80 80 80 80 80 80 80 80 80 80 80 80 80
       0.0 0.0 0.0 0.0 0.0 0.0 0.0 0.0 0.0 0.0 0.0 0.0 0.0 0.0 0.0 0.0
000080 80 80 80 80 80 80 80 80 80 80 80 80 80 80 80 80
       0.0 0.0 0.0 0.0 0.0 0.0 0.0 0.0 0.0 0.0 0.0 0.0 0.0 0.0 0.0 0.0
000090 80 80 80 80 80 80 80 80 80 80 80 80 80 80 80 80
       0.0 0.0 0.0 0.0 0.0 0.0 0.0 0.0 0.0 0.0 0.0 0.0 0.0 0.0 0.0 0.0
0000a0 80 80 80 80 80 80 80 80 80 80 80 80 80 80 80 80
       0.0 0.0 0.0 0.0 0.0 0.0 0.0 0.0 0.0 0.0 0.0 0.0 0.0 0.0 0.0 0.0
0000b0 80 80 80 80 80 80 80 80 80 80 80 80 80 80 80 80
       0.0 0.0 0.0 0.0 0.0 0.0 0.0 0.0 0.0 0.0 0.0 0.0 0.0 0.0 0.0 0.0
0000c0 80 80 80 80 80 80 80 80 80 80 80 80 80 80 80 80
       0.0 0.0 0.0 0.0 0.0 0.0 0.0 0.0 0.0 0.0 0.0 0.0 0.0 0.0 0.0 0.0
0000d0 80 80 80 80 80 80 80 80 80 80 80 80 80 80 80 80
       0.0 0.0 0.0 0.0 0.0 0.0 0.0 0.0 0.0 0.0 0.0 0.0 0.0 0.0 0.0 0.0
0000e0 80 80 80 80 80 80 80 80 80 80 80 80 80 80 80 80
       0.0 0.0 0.0 0.0 0.0 0.0 0.0 0.0 0.0 0.0 0.0 0.0 0.0 0.0 0.0 0.0
0000f0 80 80 80 80 80 80 80 80 80 80 80 80 80 80 80 80
       0.0 0.0 0.0 0.0 0.0 0.0 0.0 0.0 0.0 0.0 0.0 0.0 0.0 0.0 0.0 0.0

tfl.pseudo_qconst25 i1 [1, 10, 1, 64] scale=0.05842107 zero_point=-128
000000 80 80 80 80 80 80 80 80 80 80 80 80 80 80 80 80
       0.0 0.0 0.0 0.0 0.0 0.0 0.0 0.0 0.0 0.0 0.0 0.0 0.0 0.0 0.0 0.0
000010 80 80 80 80 80 80 80 80 80 80 80 80 80 80 80 80
       0.0 0.0 0.0 0.0 0.0 0.0 0.0 0.0 0.0 0.0 0.0 0.0 0.0 0.0 0.0 0.0
000020 80 80 80 80 80 80 80 80 80 80 80 80 80 80 80 80
       0.0 0.0 0.0 0.0 0.0 0.0 0.0 0.0 0.0 0.0 0.0 0.0 0.0 0.0 0.0 0.0
000030 80 80 80 80 80 80 80 80 80 80 80 80 80 80 80 80
       0.0 0.0 0.0 0.0 0.0 0.0 0.0 0.0 0.0 0.0 0.0 0.0 0.0 0.0 0.0 0.0
000040 80 80 80 80 80 80 80 80 80 80 80 80 80 80 80 80
       0.0 0.0 0.0 0.0 0.0 0.0 0.0 0.0 0.0 0.0 0.0 0.0 0.0 0.0 0.0 0.0
000050 80 80 80 80 80 80 80 80 80 80 80 80 80 80 80 80
       0.0 0.0 0.0 0.0 0.0 0.0 0.0 0.0 0.0 0.0 0.0 0.0 0.0 0.0 0.0 0.0
000060 80 80 80 80 80 80 80 80 80 80 80 80 80 80 80 80
       0.0 0.0 0.0 0.0 0.0 0.0 0.0 0.0 0.0 0.0 0.0 0.0 0.0 0.0 0.0 0.0
000070 80 80 80 80 80 80 80 80 80 80 80 80 80 80 80 80
       0.0 0.0 0.0 0.0 0.0 0.0 0.0 0.0 0.0 0.0 0.0 0.0 0.0 0.0 0.0 0.0
000080 80 80 80 80 80 80 80 80 80 80 80 80 80 80 80 80
       0.0 0.0 0.0 0.0 0.0 0.0 0.0 0.0 0.0 0.0 0.0 0.0 0.0 0.0 0.0 0.0
000090 80 80 80 80 80 80 80 80 80 80 80 80 80 80 80 80
       0.0 0.0 0.0 0.0 0.0 0.0 0.0 0.0 0.0 0.0 0.0 0.0 0.0 0.0 0.0 0.0
0000a0 80 80 80 80 80 80 80 80 80 80 80 80 80 80 80 80
       0.0 0.0 0.0 0.0 0.0 0.0 0.0 0.0 0.0 0.0 0.0 0.0 0.0 0.0 0.0 0.0
0000b0 80 80 80 80 80 80 80 80 80 80 80 80 80 80 80 80
       0.0 0.0 0.0 0.0 0.0 0.0 0.0 0.0 0.0 0.0 0.0 0.0 0.0 0.0 0.0 0.0
0000c0 80 80 80 80 80 80 80 80 80 80 80 80 80 80 80 80
       0.0 0.0 0.0 0.0 0.0 0.0 0.0 0.0 0.0 0.0 0.0 0.0 0.0 0.0 0.0 0.0
0000d0 80 80 80 80 80 80 80 80 80 80 80 80 80 80 80 80
       0.0 0.0 0.0 0.0 0.0 0.0 0.0 0.0 0.0 0.0 0.0 0.0 0.0 0.0 0.0 0.0
0000e0 80 80 80 80 80 80 80 80 80 80 80 80 80 80 80 80
       0.0 0.0 0.0 0.0 0.0 0.0 0.0 0.0 0.0 0.0 0.0 0.0 0.0 0.0 0.0 0.0
0000f0 80 80 80 80 80 80 80 80 80 80 80 80 80 80 80 80
       0.0 0.0 0.0 0.0 0.0 0.0 0.0 0.0 0.0 0.0 0.0 0.0 0.0 0.0 0.0 0.0

tfl.pseudo_qconst26 i1 [1, 4, 1, 32] scale=1.59275 zero_point=-128
000000 80 80 80 80 80 80 80 80 80 80 80 80 80 80 80 80
       0.0 0.0 0.0 0.0 0.0 0.0 0.0 0.0 0.0 0.0 0.0 0.0 0.0 0.0 0.0 0.0
000010 80 80 80 80 80 80 80 80 80 80 80 80 80 80 80 80
       0.0 0.0 0.0 0.0 0.0 0.0 0.0 0.0 0.0 0.0 0.0 0.0 0.0 0.0 0.0 0.0
000020 80 80 80 80 80 80 80 80 80 80 80 80 80 80 80 80
       0.0 0.0 0.0 0.0 0.0 0.0 0.0 0.0 0.0 0.0 0.0 0.0 0.0 0.0 0.0 0.0
000030 80 80 80 80 80 80 80 80 80 80 80 80 80 80 80 80
       0.0 0.0 0.0 0.0 0.0 0.0 0.0 0.0 0.0 0.0 0.0 0.0 0.0 0.0 0.0 0.0
000040 80 80 80 80 80 80 80 80 80 80 80 80 80 80 80 80
       0.0 0.0 0.0 0.0 0.0 0.0 0.0 0.0 0.0 0.0 0.0 0.0 0.0 0.0 0.0 0.0
000050 80 80 80 80 80 80 80 80 80 80 80 80 80 80 80 80
       0.0 0.0 0.0 0.0 0.0 0.0 0.0 0.0 0.0 0.0 0.0 0.0 0.0 0.0 0.0 0.0
000060 80 80 80 80 80 80 80 80 80 80 80 80 80 80 80 80
       0.0 0.0 0.0 0.0 0.0 0.0 0.0 0.0 0.0 0.0 0.0 0.0 0.0 0.0 0.0 0.0
000070 80 80 80 80 80 80 80 80 80 80 80 80 80 80 80 80
       0.0 0.0 0.0 0.0 0.0 0.0 0.0 0.0 0.0 0.0 0.0 0.0 0.0 0.0 0.0 0.0

tfl.pseudo_qconst27 i1 [1, 3, 1, 40] scale=0.101960786 zero_point=-128
000000 80 80 80 80 80 80 80 80 80 80 80 80 80 80 80 80
       0.0 0.0 0.0 0.0 0.0 0.0 0.0 0.0 0.0 0.0 0.0 0.0 0.0 0.0 0.0 0.0
000010 80 80 80 80 80 80 80 80 80 80 80 80 80 80 80 80
       0.0 0.0 0.0 0.0 0.0 0.0 0.0 0.0 0.0 0.0 0.0 0.0 0.0 0.0 0.0 0.0
000020 80 80 80 80 80 80 80 80 80 80 80 80 80 80 80 80
       0.0 0.0 0.0 0.0 0.0 0.0 0.0 0.0 0.0 0.0 0.0 0.0 0.0 0.0 0.0 0.0
000030 80 80 80 80 80 80 80 80 80 80 80 80 80 80 80 80
       0.0 0.0 0.0 0.0 0.0 0.0 0.0 0.0 0.0 0.0 0.0 0.0 0.0 0.0 0.0 0.0
000040 80 80 80 80 80 80 80 80 80 80 80 80 80 80 80 80
       0.0 0.0 0.0 0.0 0.0 0.0 0.0 0.0 0.0 0.0 0.0 0.0 0.0 0.0 0.0 0.0
000050 80 80 80 80 80 80 80 80 80 80 80 80 80 80 80 80
       0.0 0.0 0.0 0.0 0.0 0.0 0.0 0.0 0.0 0.0 0.0 0.0 0.0 0.0 0.0 0.0
000060 80 80 80 80 80 80 80 80 80 80 80 80 80 80 80 80
       0.0 0.0 0.0 0.0 0.0 0.0 0.0 0.0 0.0 0.0 0.0 0.0 0.0 0.0 0.0 0.0
000070 80 80 80 80 80 80 80 80
       0.0 0.0 0.0 0.0 0.0 0.0 0.0 0.0

tfl.pseudo_qconst28 i1 [1, 36, 1, 64] scale=0.021369811 zero_point=-128
000000 80 80 80 80 80 80 80 80 80 80 80 80 80 80 80 80
       0.0 0.0 0.0 0.0 0.0 0.0 0.0 0.0 0.0 0.0 0.0 0.0 0.0 0.0 0.0 0.0
000010 80 80 80 80 80 80 80 80 80 80 80 80 80 80 80 80
       0.0 0.0 0.0 0.0 0.0 0.0 0.0 0.0 0.0 0.0 0.0 0.0 0.0 0.0 0.0 0.0
000020 80 80 80 80 80 80 80 80 80 80 80 80 80 80 80 80
       0.0 0.0 0.0 0.0 0.0 0.0 0.0 0.0 0.0 0.0 0.0 0.0 0.0 0.0 0.0 0.0
000030 80 80 80 80 80 80 80 80 80 80 80 80 80 80 80 80
       0.0 0.0 0.0 0.0 0.0 0.0 0.0 0.0 0.0 0.0 0.0 0.0 0.0 0.0 0.0 0.0
000040 80 80 80 80 80 80 80 80 80 80 80 80 80 80 80 80
       0.0 0.0 0.0 0.0 0.0 0.0 0.0 0.0 0.0 0.0 0.0 0.0 0.0 0.0 0.0 0.0
000050 80 80 80 80 80 80 80 80 80 80 80 80 80 80 80 80
       0.0 0.0 0.0 0.0 0.0 0.0 0.0 0.0 0.0 0.0 0.0 0.0 0.0 0.0 0.0 0.0
000060 80 80 80 80 80 80 80 80 80 80 80 80 80 80 80 80
       0.0 0.0 0.0 0.0 0.0 0.0 0.0 0.0 0.0 0.0 0.0 0.0 0.0 0.0 0.0 0.0
000070 80 80 80 80 80 80 80 80 80 80 80 80 80 80 80 80
       0.0 0.0 0.0 0.0 0.0 0.0 0.0 0.0 0.0 0.0 0.0 0.0 0.0 0.0 0.0 0.0
000080 80 80 80 80 80 80 80 80 80 80 80 80 80 80 80 80
       0.0 0.0 0.0 0.0 0.0 0.0 0.0 0.0 0.0 0.0 0.0 0.0 0.0 0.0 0.0 0.0
000090 80 80 80 80 80 80 80 80 80 80 80 80 80 80 80 80
       0.0 0.0 0.0 0.0 0.0 0.0 0.0 0.0 0.0 0.0 0.0 0.0 0.0 0.0 0.0 0.0
0000a0 80 80 80 80 80 80 80 80 80 80 80 80 80 80 80 80
       0.0 0.0 0.0 0.0 0.0 0.0 0.0 0.0 0.0 0.0 0.0 0.0 0.0 0.0 0.0 0.0
0000b0 80 80 80 80 80 80 80 80 80 80 80 80 80 80 80 80
       0.0 0.0 0.0 0.0 0.0 0.0 0.0 0.0 0.0 0.0 0.0 0.0 0.0 0.0 0.0 0.0
0000c0 80 80 80 80 80 80 80 80 80 80 80 80 80 80 80 80
       0.0 0.0 0.0 0.0 0.0 0.0 0.0 0.0 0.0 0.0 0.0 0.0 0.0 0.0 0.0 0.0
0000d0 80 80 80 80 80 80 80 80 80 80 80 80 80 80 80 80
       0.0 0.0 0.0 0.0 0.0 0.0 0.0 0.0 0.0 0.0 0.0 0.0 0.0 0.0 0.0 0.0
0000e0 80 80 80 80 80 80 80 80 80 80 80 80 80 80 80 80
       0.0 0.0 0.0 0.0 0.0 0.0 0.0 0.0 0.0 0.0 0.0 0.0 0.0 0.0 0.0 0.0
0000f0 80 80 80 80 80 80 80 80 80 80 80 80 80 80 80 80
       0.0 0.0 0.0 0.0 0.0 0.0 0.0 0.0 0.0 0.0 0.0 0.0 0.0 0.0 0.0 0.0

tfl.pseudo_qconst29 i1 [1, 22, 1, 64] scale=0.04590529 zero_point=-128
000000 80 80 80 80 80 80 80 80 80 80 80 80 80 80 80 80
       0.0 0.0 0.0 0.0 0.0 0.0 0.0 0.0 0.0 0.0 0.0 0.0 0.0 0.0 0.0 0.0
000010 80 80 80 80 80 80 80 80 80 80 80 80 80 80 80 80
       0.0 0.0 0.0 0.0 0.0 0.0 0.0 0.0 0.0 0.0 0.0 0.0 0.0 0.0 0.0 0.0
000020 80 80 80 80 80 80 80 80 80 80 80 80 80 80 80 80
       0.0 0.0 0.0 0.0 0.0 0.0 0.0 0.0 0.0 0.0 0.0 0.0 0.0 0.0 0.0 0.0
000030 80 80 80 80 80 80 80 80 80 80 80 80 80 80 80 80
       0.0 0.0 0.0 0.0 0.0 0.0 0.0 0.0 0.0 0.0 0.0 0.0 0.0 0.0 0.0 0.0
000040 80 80 80 80 80 80 80 80 80 80 80 80 80 80 80 80
       0.0 0.0 0.0 0.0 0.0 0.0 0.0 0.0 0.0 0.0 0.0 0.0 0.0 0.0 0.0 0.0
000050 80 80 80 80 80 80 80 80 80 80 80 80 80 80 80 80
       0.0 0.0 0.0 0.0 0.0 0.0 0.0 0.0 0.0 0.0 0.0 0.0 0.0 0.0 0.0 0.0
000060 80 80 80 80 80 80 80 80 80 80 80 80 80 80 80 80
       0.0 0.0 0.0 0.0 0.0 0.0 0.0 0.0 0.0 0.0 0.0 0.0 0.0 0.0 0.0 0.0
000070 80 80 80 80 80 80 80 80 80 80 80 80 80 80 80 80
       0.0 0.0 0.0 0.0 0.0 0.0 0.0 0.0 0.0 0.0 0.0 0.0 0.0 0.0 0.0 0.0
000080 80 80 80 80 80 80 80 80 80 80 80 80 80 80 80 80
       0.0 0.0 0.0 0.0 0.0 0.0 0.0 0.0 0.0 0.0 0.0 0.0 0.0 0.0 0.0 0.0
000090 80 80 80 80 80 80 80 80 80 80 80 80 80 80 80 80
       0.0 0.0 0.0 0.0 0.0 0.0 0.0 0.0 0.0 0.0 0.0 0.0 0.0 0.0 0.0 0.0
0000a0 80 80 80 80 80 80 80 80 80 80 80 80 80 80 80 80
       0.0 0.0 0.0 0.0 0.0 0.0 0.0 0.0 0.0 0.0 0.0 0.0 0.0 0.0 0.0 0.0
0000b0 80 80 80 80 80 80 80 80 80 80 80 80 80 80 80 80
       0.0 0.0 0.0 0.0 0.0 0.0 0.0 0.0 0.0 0.0 0.0 0.0 0.0 0.0 0.0 0.0
0000c0 80 80 80 80 80 80 80 80 80 80 80 80 80 80 80 80
       0.0 0.0 0.0 0.0 0.0 0.0 0.0 0.0 0.0 0.0 0.0 0.0 0.0 0.0 0.0 0.0
0000d0 80 80 80 80 80 80 80 80 80 80 80 80 80 80 80 80
       0.0 0.0 0.0 0.0 0.0 0.0 0.0 0.0 0.0 0.0 0.0 0.0 0.0 0.0 0.0 0.0
0000e0 80 80 80 80 80 80 80 80 80 80 80 80 80 80 80 80
       0.0 0.0 0.0 0.0 0.0 0.0 0.0 0.0 0.0 0.0 0.0 0.0 0.0 0.0 0.0 0.0
0000f0 80 80 80 80 80 80 80 80 80 80 80 80 80 80 80 80
       0.0 0.0 0.0 0.0 0.0 0.0 0.0 0.0 0.0 0.0 0.0 0.0 0.0 0.0 0.0 0.0
